save_dir/cnn/model.pt (torch, 953727 bytes, 33 tensors)

cnn_pep_1.conv.weight f4 [32, 21, 2]
-0.11158776 -0.024796005 -0.12716745 -0.24041936 -0.017229842 -0.030073538 0.05480844 0.16057713
-0.12474139 -0.03156733 -0.17099267 -0.012198211 -0.116035506 -0.06305774 -0.07958534 -0.15580925
-0.17338511 -0.07222182 -0.030007297 -0.11668933 0.120375626 0.31987983 -0.15520132 0.06494007
-0.087856695 0.07574181 0.2281718 -0.17129233 -0.058697738 0.0065835635 -0.07720545 0.11383766
-0.13360533 -0.14256586 -0.11815962 -0.182154 -0.21279411 0.15169135 0.066137165 0.11633367
0.053234033 -0.045748405 -0.043295234 -0.19251825 -0.3352651 -0.15685353 0.10098419 0.22489838
0.042398855 -0.006477023 0.3018942 0.4473033 0.16609767 0.02320987 0.15598519 -0.048662055
0.051350616 -0.13985972 -0.10066671 -0.11973272 0.107270345 0.003591263 -0.2550684 -0.040754896
0.0073280814 -0.13866936 0.023037715 -0.019448612 0.16950673 0.17906953 -0.0811225 -0.02998342
0.037259754 0.1750996 -0.06910898 0.042094912 -0.044009138 0.06864205 0.03605026 -0.031598043
-0.032336146 0.11258141 0.2135584 -0.19419457 0.12209666 -0.0032469765 -0.060641177 -0.16585448
0.0040568025 0.1003791 0.012636754 0.18081453 0.05902657 -0.07532313 -0.06612666 -0.028498808
-0.045457773 0.040820524 -0.26142257 -0.24396846 0.08106339 0.05666623 -0.24191067 -0.059219357
-0.1443641 -0.07563148 -0.0046711755 -0.10344281 0.14696418 0.0033290666 -0.019866582 0.04798313
-0.11531601 0.118625276 0.050447334 -0.24233387 -0.09657268 -0.21339437 0.21604365 0.22206417
-0.04748508 -0.035439298 -0.068025835 0.16076332 -0.26444417 -0.20984739 0.05471306 -0.12177222
-0.0759034 -0.09631336 -0.18192767 0.09950337 -0.07123503 0.08037305 0.03951339 0.07420155
-0.08063511 0.22457668 0.05442807 0.06229775 0.10695702 0.1412947 0.07728903 -0.07146252
-0.030225577 -0.1650449 0.22518502 0.15745355 -0.09719194 -0.229616 -0.09281734 -0.24267839
0.06603803 0.15113048 -0.0071592857 -0.2163844 -0.0044526164 0.012561734 -0.113837615 -0.05229989
-0.17208707 -0.026755365 -0.09806675 -0.09318475 0.174042 -0.08213862 -0.11683299 0.06550458
-0.20782778 0.044690885 0.054962166 -0.1266883 0.23994127 -0.09440524 -0.25348344 0.014763481
0.04845896 -0.0391825 0.09679171 0.011037908 -0.019247834 -0.07337313 0.17472313 0.1506496
0.06936097 0.10801361 -0.14726196 -0.03241289 -0.12870218 -0.02879757 0.03498445 0.07604076
-0.16620298 -0.043573152 -0.13215603 -0.20032994 -0.18749948 0.057407036 0.011232841 -0.053193267
-0.03536659 0.17040163 -0.22583681 -0.094913006 0.10648329 0.12474368 -0.17316258 0.013852912
0.12877183 -0.021527957 -0.2327841 -0.20311102 -0.2210249 -0.21111564 0.09555454 0.2636983
-0.09159182 -0.11656365 0.114874296 -0.1020197 -0.21049643 -0.043884505 0.28530607 0.032342244
-0.19702955 0.062121402 -0.212509 -0.12842427 -0.076029986 -0.075266354 -0.007213512 0.064594336
-0.02996377 -0.016256407 -0.04578197 0.06434602 0.07630742 0.056996435 -0.11903129 -0.12538834
-0.04465742 -0.041660856 -0.090969495 -0.0125896605 0.12371554 -0.17810796 0.024621187 -0.1934167
0.05380837 -0.12804207 -0.1240659 0.06720487 0.19451451 -0.15843472 -0.05402391 -0.0378751
00000000: 2088 e4bd fe20 cbbc 2f38 02be 7e30 76be
00000010: 9925 8dbc c85c f6bc d17e 603d 556e 243e
00000020: 6a78 ffbd bf4c 01bd b418 2fbe 01db 47bc
00000030: 06a4 edbd 6b24 81bd a4fd a2bd 768c 1fbe
00000040: de8b 31be 09e9 93bd ddd1 f5bc d1fa eebd
00000050: 7f87 f63d 4ac7 a33e 18ed 1ebe 4dff 843d
00000060: 36ee b3bd 861e 9b3d dea5 693e 4267 2fbe
00000070: 0a6d 70bd efba d73b e41d 9ebd b823 e93d
00000080: d6cf 08be c9fc 11be acfd f1bd 9486 3abe
00000090: b3e6 59be fa54 1b3e ec72 873d 5940 ee3d
000000a0: ee0b 5a3d ae62 3bbd 5856 31bd 8123 45be
000000b0: dea7 abbe 369e 20be cdd0 ce3d c34b 663e
000000c0: 6caa 2d3d 353d d4bb e091 9a3e f004 e53e
000000d0: 8215 2a3e a022 be3c 95ba 1f3e dd51 47bd
000000e0: 0655 523d 6337 0fbe 592a cebd 6e36 f5bd
000000f0: 8eb0 db3d 655b 6b3b 5398 82be 9bee 26bd
00000100: 6720 f03b 57ff 0dbe 97b9 bc3c b252 9fbc
00000110: 2c93 2d3e 015e 373e 8e23 a6bd ca9f f5bc
00000120: af9d 183d 4f4d 333e 0289 8dbd b76b 2c3d
00000130: ed42 34bd 3494 8c3d 70a9 133d f36c 01bd
00000140: e872 04bd 1591 e63d 0eaf 5a3e f1da 46be
00000150: d00d fa3d 3acb 54bb e262 78bd c2d5 29be
00000160: edee 843b 8f93 cd3d 630a 4f3c 7227 393e
00000170: d8c5 713d 0343 9abd 6a6d 87bd 5576 e9bc
00000180: ee31 3abd 6c33 273d 2ed9 85be ded2 79be
00000190: 9004 a63d d91a 683d 6eb7 77be ff8f 72bd
000001a0: 2fd4 13be ade4 9abd a910 99bb d3d9 d3bd
000001b0: c77d 163e 782c 5a3b 3ebf a2bc f589 443d
000001c0: cd2a ecbd cff1 f23d dda1 4e3d 5f26 78be
000001d0: e6c7 c5bd 0e84 5abe 8c3a 5d3e ca64 633e
000001e0: b77f 42bd cc28 11bd 2151 8bbd 249f 243e
000001f0: 3a65 87be 3ce2 56be cd1a 603d b763 f9bd
00000200: 3e73 9bbd f03f c5bd 3f4b 3abe 6cc8 cb3d
00000210: ace3 91bd a09a a43d cbd8 213d fbf6 973d
00000220: 0524 a5bd 6ef7 653e f8ef 5e3d ed2b 7f3d
00000230: 480c db3d 8faf 103e b649 9e3d f15a 92bd
00000240: a19b f7bc 8801 29be e796 663e 813b 213e
00000250: 910c c7bd 7520 6bbe 0417 bebd af80 78be
00000260: f23e 873d f3c1 1a3e 7198 eabb df93 5dbe
00000270: 41e7 91bb bbcf 4d3c b223 e9bd 6938 56bd
00000280: 9837 30be 112e dbbc 38d7 c8bd a5d7 bebd
00000290: 1138 323e 4b38 a8bd 2246 efbd 4427 863d
000002a0: ced0 54be ca0d 373d 0220 613d 94ba 01be
000002b0: 2ab3 753e 8957 c1bd 95c8 81be 87e2 713c
000002c0: e77c 463d d47d 20bd bb3a c63d 57d8 343c
000002d0: a2ad 9dbc a744 96bd 9fea 323e e443 1a3e
000002e0: 200d 8e3d 3d36 dd3d d7cb 16be 61c3 04bd
000002f0: 81ca 03be e2e8 ebbc db4b 0f3d 42bb 9b3d
00000300: 1d31 2abe c379 32bd e953 07be 4b23 4dbe
00000310: ddff 3fbe a423 6b3d f309 383c 2fe1 59bd
00000320: 8fdc 10bd c47d 2e3e c441 67be c061 c2bd
00000330: e913 da3d 9d79 ff3d 8851 31be 53f7 623c
00000340: c3dc 033e 665b b0bc f55e 6ebe 56fc 4fbe
00000350: 5a54 62be b32e 58be 19b2 c33d 7703 873e
00000360: 7e94 bbbd ecb8 eebd 3743 eb3d b4ef d0bd
00000370: 608c 57be 3dc0 33bd a313 923e 4d79 043d
00000380: 1dc2 49be 0373 7e3d f69b 59be a781 03be
00000390: 9cb5 9bbd 3f25 9abd 535f ecbb 094a 843d
000003a0: 9576 f5bc 282c 85bc e085 3bbd d9c7 833d
000003b0: 1147 9c3d 1875 693d adc6 f3bd cd65 00be
000003c0: b3ea 36bd 93a4 2abd 374e babd dd44 4ebc
000003d0: 935e fd3d ef61 36be 5fb2 c93c 070f 46be
000003e0: 2a66 5c3d 761d 03be 4316 febd b5a2 893d
000003f0: d02e 473e b63c 22be 2d48 5dbd ec22 1bbd

cnn_pep_1.conv.bias f4 [32]
-0.05286811 -0.026381766 0.088381544 -0.05362197 -0.03606104 0.015433201 -0.04741486 0.050104115
0.058778822 0.0066744704 0.020318534 0.046256434 -0.022043336 -0.014651117 0.021919075 -0.008527992
0.0014346843 0.044972382 -0.04914967 0.018857278 0.015986992 0.0024065517 0.017181365 -0.04842967
-0.1402093 0.06314096 -0.048861235 0.041284643 -0.10335533 -0.03172724 0.012015065 0.059158426
00000000: 3b8c 58bd 931e d8bc 6201 b53d b6a2 5bbd
00000010: beb4 13bd 89db 7c3c 1636 42bd f939 4d3d
00000020: 10c2 703d 84b5 da3b 0e73 a63c 6377 3d3d
00000030: 3a94 b4bc 3d0b 70bc a28f b33c feb8 0bbc
00000040: 040c bc3a f634 383d 2a51 49bd 947a 9a3c
00000050: 27f7 823c 3db7 1d3b efbf 8c3c 315e 46bd
00000060: 0793 0fbe 0c50 813d b822 48bd 161a 293d
00000070: f6ab d3bd 6cf4 01bd d6da 443c 1b50 723d

cnn_pep_1.out_linear.weight f4 [64, 320]
0.0535219 -0.00291043 -0.07008072 -0.0010788526 0.00831985 -0.030747643 -0.009150083 -0.11764863
-0.0602129 0.18466036 -0.1486392 -0.04287425 -0.07194019 0.0431536 -0.092114896 -0.03041726
0.03997773 0.0030098096 -0.03631397 -0.013981816 -0.03918381 -0.07467037 -0.036371164 -0.10764329
-0.024318123 -0.07006388 -0.09271939 -0.057296645 -0.095379315 -0.0039884285 -0.054286793 0.021751158
0.099689506 2.076034e-05 0.094654046 0.10939513 0.15463218 0.0037594 0.004294905 -0.047497407
0.05146514 0.008535431 0.048933316 0.058592092 -0.0040722103 -0.03706899 -0.0040030517 -0.024096854
-0.059499443 -0.03267048 -0.0062984587 0.015783899 -0.099625304 -0.18633088 -0.080654845 0.020745846
0.06860813 -0.072742924 -0.18282688 -0.08240387 -0.10507678 0.011527735 0.0042999354 -0.13032806
0.082993485 0.08362468 -0.01753169 0.002025384 0.023273371 0.08443579 -0.10742986 -0.0889536
-0.022647282 -0.057625666 0.026776502 0.031672135 0.053485855 -0.11451588 -0.071542144 -0.1177716
-0.04951751 -0.053961165 -0.14130838 -0.12629779 -0.07980283 -0.048026808 -0.05436834 -0.1470437
-0.1209798 -0.06759313 -0.0018884202 -0.1187522 -0.029339813 -0.17421544 -0.16920999 -0.0738779
0.023272008 0.06350968 -0.027672173 -0.105660565 -0.12988518 -0.039866 0.019162294 0.21351565
0.10143787 0.08676656 0.08518748 0.010513095 0.08596173 0.0144676715 -0.0928159 -0.12577622
0.06639665 0.013081733 0.013572967 0.044004217 0.008620317 -0.14281675 -0.032362513 0.008848112
0.11103856 -0.0057426137 0.056419242 -0.024694435 -0.048057754 -0.057043638 0.04569932 -0.005865083
-0.09434054 -0.015587127 -0.11625079 0.13990669 0.034798265 0.0037746194 -0.01998146 -0.03735547
-0.030875845 0.0868673 0.18418251 0.012431295 -0.04673125 -0.13962504 -0.035693586 -0.012521115
0.092304066 0.021584453 -0.090648375 -0.17374814 -0.06196892 -0.02996838 -0.15426959 0.04675856
0.013420449 -0.16857976 0.087913334 -0.040143 -0.016629526 -0.18822603 -0.049748648 -0.004469003
-0.10283876 -0.058041055 -0.048859857 -0.12902932 -0.007764532 7.807796e-05 -0.09351226 0.025564801
0.014220189 0.14495303 -0.06935191 -0.122816846 -0.15351439 -0.029187895 -0.06644856 -0.017773438
0.049348872 -0.006279815 -0.0005187958 0.008052382 0.041194074 -0.05096391 -0.037963424 -0.21944569
-0.0011628037 -0.019059125 -0.06729397 -0.07792732 0.15569872 0.05894889 -0.17764287 -0.1833437
-0.13851507 -0.056020185 -0.05032449 0.0071377656 0.020948963 -0.08932981 -0.10269375 -0.03484285
0.05528315 -0.06754152 -0.15647255 -0.07857414 -0.045080077 -0.018913262 -0.062419537 -0.026471546
0.03523922 0.11991195 -0.1321699 -0.042765755 0.036344685 -0.06124304 -0.05285614 -0.020049725
-0.11009404 -0.028525269 -0.0044576875 -0.036443148 -0.13777296 0.030509163 -0.071934395 -0.08648179
-0.06553815 0.085274264 0.056987166 0.06383928 0.008048509 -0.051071126 0.12793422 -0.06785764
-0.08577763 0.09002706 0.062833734 0.027723918 -0.021578724 -0.014705279 0.021799287 0.024061171
-0.12642029 -0.14031759 0.055236068 0.011107578 -0.036075287 0.021168042 -0.05773099 0.10450314
0.037411638 -0.11559672 -0.023681043 -0.0078070913 -0.026110522 -0.0002822038 -0.03313637 -0.027784353
00000000: c839 5b3d eabc 3ebb 7b86 8fbd 4968 8dba
00000010: fb4f 083c 7be2 fbbc 3bea 15bc c4f1 f0bd
00000020: cda1 76bd 9b17 3d3e e034 18be e99c 2fbd
00000030: 6155 93bd d4c1 303d bca6 bcbd 9e2d f9bc
00000040: b0bf 233d 3a40 453b f5bd 14bd fd13 65bc
00000050: 347f 20bd c7ec 98bd eef9 14bd 1674 dcbd
00000060: cd36 c7bc a77d 8fbd aae3 bdbd e3af 6abd
00000070: 3b56 c3bd 5db1 82bb d45b 5ebd 7c2f b23c
00000080: 032a cc3d 7e26 ae37 fbd9 c13d 8e0a e03d
00000090: e657 1e3e 4460 763b 46bc 8c3b a48c 42bd
000000a0: 1ccd 523d 31d8 0b3c 4d6e 483d 43fe 6f3d
000000b0: 2d70 85bb a7d5 17bd 082c 83bb c466 c5bc
000000c0: b0b5 73bd 7bd1 05bd 4d63 cebb 3c4d 813c
000000d0: 5a08 ccbd 86cd 3ebe 5e2e a5bd 31f3 a93c
000000e0: 6b82 8c3d 3efa 94bd f836 3bbe 5cc3 a8bd
000000f0: 7f32 d7bd d3de 3c3c 79e6 8c3b b874 05be
00000100: 7df8 a93d 6b43 ab3d 9e9e 8fbc 4ebc 043b
00000110: cca7 be3c acec ac3d 3004 dcbd 4e2d b6bd
00000120: cb86 b9bc e408 6cbd 655a db3c a4ba 013d
00000130: fc13 5b3d 4d87 eabd b084 92bd 3d32 f1bd
00000140: dfd2 4abd 6206 5dbd 25b3 10be 3554 01be
00000150: ab6f a3bd c2b7 44bd 56b1 5ebd a092 16be
00000160: 42c4 f7bd 446e 8abd de84 f7ba 5a34 f3bd
00000170: 0c5a f0bc 8865 32be 6245 2dbe 4c4d 97bd
00000180: f0a4 be3c 5d11 823d c1b0 e2bc 9164 d8bd
00000190: 9f00 05be 884a 23bd 3efa 9c3c d9a3 5a3e
000001a0: a8be cf3d abb2 b13d c676 ae3d 1e3f 2c3c
000001b0: b40c b03d d009 6d3c 4316 bebd 7bcb 00be
000001c0: f8fa 873d c454 563c 2661 5e3c c43d 343d
000001d0: 3b3c 0d3c 8e3e 12be 8e8e 04bd acf7 103c
000001e0: 2f68 e33d 892c bcbb dd17 673d fc4b cabc
000001f0: 35d8 44bd 97a6 69bd 362f 3b3d e22f c0bb
00000200: 9d35 c1bd 2661 7fbc e514 eebd b343 0f3e
00000210: a088 0e3d 9b5f 773b 29b0 a3bc 0d02 19bd
00000220: 57ef fcbc 7ce7 b13d 579a 3c3e a1ac 4b3c
00000230: 4469 3fbd def9 0ebe 7033 12bd 5d25 4dbc
00000240: ea09 bd3d e1d1 b03c dba5 b9bd 08eb 31be
00000250: 1fd3 7dbd 4080 f5bc d9f8 1dbe e785 3f3d
00000260: 71e1 5b3c 2ca0 2cbe e80b b43d fd6c 24bd
00000270: a53a 88bc 53be 40be 3dc5 4bbd b770 92bb
00000280: 219d d2bd 75bc 6dbd 4621 48bd 4320 04be
00000290: 9e6d febb c9bd a338 5b83 bfbd 466d d13c
000002a0: ccfb 683c 916e 143e 6008 8ebd 6687 fbbd
000002b0: e032 1dbe 741b efbc 2f16 88bd 9a99 91bc
000002c0: 0b22 4a3d e8c6 cdbb ccff 07ba 23ee 033c
000002d0: 1ebb 283d 88bf 50bd 897f 1bbd 5fb6 60be
000002e0: 3869 98ba e221 9cbc 6cd1 89bd 5c98 9fbd
000002f0: 7c6f 1f3e 6474 713d 03e8 35be 73be 3bbe
00000300: e5d6 0dbe 6c75 65bd 0d21 4ebd ebe3 e93b
00000310: 299d ab3c 8cf2 b6bd 1a51 d2bd 60b7 0ebd
00000320: 9670 623d 3553 8abd 573a 20be 7beb a0bd
00000330: e3a5 38bd fcef 9abc a1ab 7fbd dbda d8bc
00000340: 0057 103d 6594 f53d 8c57 07be 252b 2fbd
00000350: 2ade 143d fbd9 7abd ae7f 58bd 523f a4bc
00000360: fc78 e1bd d3ad e9bc cb11 92bb 6945 15bd
00000370: 5b14 0dbe 5aee f93c 5752 93bd 5d1d b1bd
00000380: de38 86bd 46a4 ae3d 606b 693d 2bbe 823d
00000390: e5dd 033c f52f 51bd 3001 033e f2f8 8abd
000003a0: 2fac afbd 1b60 b83d f9ae 803d 451d e33c
000003b0: ddc5 b0bc 69ee 70bc 6b94 b23c ef1b c53c
000003c0: 5274 01be 6aaf 0fbe 373f 623d 8ffc 353c
000003d0: aec3 13bd 9a68 ad3c 5577 6cbd be05 d63d
000003e0: f23c 193d f9bd ecbd bffe c1bc a1d2 ffbb
000003f0: bce5 d5bc c1f4 93b9 01ba 07bd 039c e3bc

cnn_pep_1.out_linear.bias f4 [64]
-0.057871405 -0.13134056 -0.07890501 -0.08386321 -0.045841414 -0.10812192 -0.09089593 -0.05647044
-0.10506146 -0.11909057 0.00637517 0.012980361 0.053286627 -0.04817362 -0.019747403 -0.035806213
-0.019616043 0.045717087 -0.14573862 -0.08200065 -0.10170258 -0.08178806 0.044564873 -0.13779032
-0.05762509 -0.17554075 0.0101611875 -0.0020429469 -0.040970962 0.04149261 -0.07857294 -0.057635613
-0.070187345 0.08435721 0.046488725 0.06229911 -0.03691514 -0.041129816 -0.07047501 -0.107629396
0.044997633 0.0047490476 0.017515164 -0.043114025 0.0039601866 -0.10245601 -0.057326972 0.021590682
-0.035591077 0.016780006 0.062083744 0.085588686 0.05281202 -0.12859641 -0.036525395 -0.012058635
-0.066870056 -0.020355301 -0.121738106 -0.03088381 -0.096175805 -0.11507677 -0.09316548 -0.11427003
00000000: 910a 6dbd 247e 06be f398 a1bd 7ac0 abbd
00000010: 35c4 3bbd 066f ddbd a527 babd 8c4d 67bd
00000020: 762a d7bd c2e5 f3bd cde6 d03b 94ab 543c
00000030: 1443 5a3d b451 45bd 4ec5 a1bc 89a9 12bd
00000040: d3b1 a0bc d741 3b3d 813c 15be f5ef a7bd
00000050: 7149 d0bd 8080 a7bd a889 363d e818 0dbe
00000060: 4908 6cbd f4c0 33be 1c7b 263c f6e2 05bb
00000070: 2bd1 27bd 28f4 293d d9ea a0bd 5213 6cbd
00000080: 62be 8fbd 79c3 ac3d f66a 3e3d 5a2d 7f3d
00000090: 5434 17bd bd77 28bd 3455 90bd cd6c dcbd
000000a0: 704f 383d e69d 9b3b f67b 8f3c 5598 30bd
000000b0: 74c4 813b 75d4 d1bd b0cf 6abd f1de b03c
000000c0: f3c7 11bd 3976 893c 864b 7e3d 1f49 af3d
000000d0: 6b51 583d c7ae 03be a79b 15bd 9591 45bc
000000e0: 2bf3 88bd 29c0 a6bc d451 f9bd 0b00 fdbc
000000f0: d2f7 c4bd 5fad ebbd 8bcd bebd 6806 eabd

cnn_a1_1.conv.weight f4 [32, 21, 2]
-0.06882227 -0.06879911 0.05657826 0.010768521 -0.16997147 -0.16375558 0.10854172 0.14756797
-0.12164895 0.07618456 0.034986697 0.038764574 -0.12890288 4.2955173e-05 0.12416325 0.07762337
0.027962448 -0.16462664 -0.28783944 0.12580274 -0.0026132835 -0.078920476 0.044358086 0.12842216
-0.17913665 -0.03633007 -0.07146283 0.027153691 -0.026251087 -0.07156855 -0.21645513 -0.015351028
-0.002361485 0.044030245 -0.20232728 -0.10449444 -0.07843577 -0.18566197 -0.13180979 -0.12857236
-0.06382208 -0.058302943 -0.13564338 -0.10277018 -0.15022007 0.13456789 -0.13627699 0.029579746
-0.023091279 -0.022336632 -0.11240437 -0.12223379 0.20881228 -0.015676843 0.16560574 0.048479795
0.027613169 0.08246989 -0.13711129 -0.07394594 -0.07551553 -0.028184399 0.10278257 -0.10069528
0.20751666 -0.017068598 -0.15528381 0.019027704 0.012644343 -0.07234371 -0.13846318 -0.080751315
-0.07406207 -0.053599495 -0.13652535 0.0049847485 -0.13261624 -0.07662729 0.09796928 0.2064754
-0.18655261 -0.19534954 0.03256363 -0.13655251 0.12608448 0.19192843 -0.20565104 -0.1558111
-0.06506558 0.12146288 -0.03940961 -0.12513342 0.088851474 0.20648137 -0.028317586 -0.14067383
0.259929 0.022286419 -0.083027065 0.10710988 0.033460822 0.1150442 0.024703853 0.22791523
0.14988716 0.11159081 0.06457868 0.008690615 -0.10904935 -0.08389441 -0.024686199 0.008173548
0.11138334 -0.048731107 0.070344664 -0.15971732 0.11816968 -0.05197916 0.065807685 -0.011841906
0.09612842 0.0556418 0.12971584 -0.13885571 -0.011103307 0.23187344 0.014782583 -0.019096619
0.032130897 0.07153478 -0.0033713956 0.09887084 -0.10092331 0.19365016 0.03623756 0.021156823
-0.054982945 -0.08845045 0.08230534 -0.0008923259 -0.20126992 -0.11294905 -0.15693085 -0.10143419
0.17035162 -0.124138705 0.17652906 0.056851186 -0.22093135 -0.13321733 0.13283102 -0.16769302
0.042609908 0.016326984 0.14255731 -0.19488616 0.08249102 -0.08299808 0.14580858 0.004516556
0.0818268 -0.039544363 0.019125672 -0.20137624 -0.15969254 0.10123525 0.06896595 0.13875811
0.048248135 0.025844667 0.0053403135 -0.123105705 0.2663401 -0.15045714 -0.026143048 0.19272731
-0.16993654 -0.16832204 0.06544823 -0.051816013 -0.059364684 0.13715702 0.14473985 -0.010324769
-0.091010116 -0.19137949 -0.02488959 -0.26898855 -0.07475811 0.18666637 -0.2122386 0.02694592
-0.12853314 -0.2097821 -0.17231354 0.08674144 -0.02960057 -0.045495287 0.0497448 0.09301004
-0.027212052 0.01568577 -0.062619485 0.021806376 0.028584797 -0.12814829 -0.24315591 -0.20945334
-0.1960378 -0.01800814 0.0178048 -0.027295485 0.2647428 0.1970962 0.016437348 -0.06194181
0.17674935 -0.06313879 -0.12485941 0.14727584 -0.04505145 0.046541885 0.02375985 -0.07472816
-0.05030056 0.06199463 -0.16206113 0.0076214867 0.08811298 0.0478912 -0.06682931 -0.0980978
-0.15944268 0.06852069 -0.06677772 0.16892312 -0.14576955 -0.0034333945 -0.056250047 -0.016642747
0.07915649 -0.073956534 -0.0077776327 -0.0077661974 0.094712526 -0.040752817 0.058366947 -0.030906694
-0.052656878 -0.00674571 -0.10801235 0.19878823 0.04134948 0.1831672 0.18681554 -0.046570946
00000000: b1f2 8cbd 8ce6 8cbd 9bbe 673d 736e 303c
00000010: 000d 2ebe 8baf 27be 1f4b de3d 0f1c 173e
00000020: 1623 f9bd a706 9c3d 364e 0f3d 9ac7 1e3d
00000030: 1eff 03be c42a 3438 4d49 fe3d 00f9 9e3d
00000040: 8111 e53c e393 28be b15f 93be 6fd2 003e
00000050: 9f43 2bbb 0fa1 a1bd d3b0 353d 1981 033e
00000060: 996f 37be d7ce 14bd 1b5b 92bd 6b71 de3c
00000070: 850c d7bc 8892 92bd 6aa6 5dbe e182 7bbc
00000080: 25c3 1abb 0f59 343d e22e 4fbe 2e01 d6bd
00000090: efa2 a0bd 2c1e 3ebe 25f9 06be 79a8 03be
000000a0: 27b5 82bd 11cf 6ebd 19e6 0abe 2c79 d2bd
000000b0: 4ad3 19be 2acc 093e 328c 0bbe 3951 f23c
000000c0: ec29 bdbc 50fb b6bc 4334 e6bd b655 fabd
000000d0: e3d2 553e b96c 80bc 8d94 293e c092 463d
000000e0: 0335 e23c f9e5 a83d e766 0cbe f870 97bd
000000f0: e3a7 9abd f8e2 e6bc ab7f d23d 5439 cebd
00000100: 3f7f 543e 72d3 8bbc b802 1fbe fddf 9b3c
00000110: 382a 4f3c f028 94bd 4bc9 0dbe f260 a5bd
00000120: dbad 97bd 258b 5bbd 4dcd 0bbe 1a57 a33b
00000130: 8dcc 07be c5ee 9cbd 1ea4 c83d 4a6e 533e
00000140: a607 3fbe b609 48be 7161 053d 6cd4 0bbe
00000150: 4a1c 013e e388 443e 3096 52be f28c 1fbe
00000160: 1a41 85bd 88c1 f83d f96b 21bd fa22 00be
00000170: c3f7 b53d da6f 533e 48fa e7bc cd0c 10be
00000180: 6a15 853e 0292 b63c 180a aabd 6d5c db3d
00000190: 370e 093d 4b9c eb3d bc5f ca3c 9c62 693e
000001a0: 057c 193e b989 e43d d441 843d 1563 0e3c
000001b0: 4455 dfbd d5d0 abbd b63a cabc 58ea 053c
000001c0: f31c e43d 459a 47bd dd10 903d f08c 23be
000001d0: f202 f23d 1ae8 54bd 2ec6 863d 8e04 42bc
000001e0: fade c43d a8e8 633d 3bd4 043e 3130 0ebe
000001f0: a5ea 35bc 3b70 6d3e a632 723c 8370 9cbc
00000200: b09b 033d d480 923d a2f2 5cbb cc7c ca3d
00000210: e1b0 cebd 3a4c 463e d66d 143d 1351 ad3c
00000220: cc35 61bd 8225 b5bd b48f a83d faea 69ba
00000230: b419 4ebe d551 e7bd 7bb2 20be bbbc cfbd
00000240: a870 2e3e 6f3c febd 09c4 343e cadc 683d
00000250: d43b 62be 206a 08be db04 083e b8b7 2bbe
00000260: ba87 2e3d 2bc0 853c 8bfa 113e 3d90 47be
00000270: 0df1 a83d e6fa a9bd d84e 153e 9eff 933b
00000280: cf94 a73d 45f9 21bd 71ad 9c3c 9335 4ebe
00000290: 7186 23be 6d54 cf3d 053e 8d3d 9b16 0e3e
000002a0: d69f 453d 32b8 d33c ccfd ae3b d81e fcbd
000002b0: bb5d 883e 7011 1abe f229 d6bc 4f5a 453e
000002c0: d803 2ebe 9d5c 2cbe b909 863d 073d 54bd
000002d0: 6228 73bd e472 0c3e af36 143e 3829 29bc
000002e0: 8363 babd fcf8 43be 41e5 cbbc deb8 89be
000002f0: c81a 99bd 7825 3f3e 1355 59be b1bd dc3c
00000300: 319e 03be 1ed1 56be f672 30be 7fa5 b13d
00000310: e57c f2bc 4459 3abd 34c1 4b3d 0c7c be3d
00000320: cfeb debc 727f 803c a53e 80bd 49a3 b23c
00000330: aa2a ea3c 4e39 03be ddfd 78be f07a 56be
00000340: 22be 48be cf85 93bc 5fdb 913c c89a dfbc
00000350: 5e8c 873e 96d3 493e 9ea7 863c b2b6 7dbd
00000360: c8fd 343e e94e 81bd 4ab6 ffbd 7acf 163e
00000370: df87 38bd b4a2 3e3d 04a4 c23c 140b 99bd
00000380: f607 4ebd 15ee 7d3d 5af3 25be aabd f93b
00000390: 9474 b43d 9029 443d cedd 88bd 80e7 c8bd
000003a0: f144 23be 9354 8c3d c2c2 88bd 2ffa 2c3e
000003b0: 9d44 15be cd02 61bb 7366 66bd 5f56 88bc
000003c0: cc1c a23d 8676 97bd 83db febb 967b febb
000003d0: a4f8 c13d 6dec 26bd 2e12 6f3d 0930 fdbc
000003e0: bdae 57bd 1e0b ddbb 9435 ddbd 248f 4b3e
000003f0: 135e 293d 2f90 3b3e 934c 3f3e 2dc1 3ebd

cnn_a1_1.conv.bias f4 [32]
0.06505707 -0.027488654 -0.029184612 -0.022477804 -0.07570255 -0.09593384 -0.021114983 -0.12158138
-0.16228406 -0.079999164 -0.017109828 0.027659073 -0.036316246 -0.09665107 -0.0060980422 -0.027548535
-0.044646718 -0.028855264 -0.022560634 0.05454363 -0.015021355 -0.13660027 0.026442327 -0.011682235
-0.09239437 -0.08446549 -0.09044797 -0.038750518 0.08904033 -0.085222 -0.06392978 0.040892273
00000000: a43c 853d e32f e1bc 9114 efbc 5f23 b8bc
00000010: f009 9bbd f678 c4bd 54f9 acbc a9ff f8bd
00000020: cb2d 26be 9ad6 a3bd e929 8cbc 4895 e23c
00000030: 58c0 14bd fff0 c5bd 16d2 c7bb 77ad e1bc
00000040: 7adf 36bd e061 ecbc 14d1 b8bc 2469 5f3d
00000050: 211c 76bc f1e0 0bbe 949d d83c d866 3fbc
00000060: 4239 bdbd 3efc acbd c93c b9bd ddb8 1ebd
00000070: c75a b63d df88 aebd 9eed 82bd a87e 273d

cnn_a1_1.out_linear.weight f4 [64, 224]
-0.038309705 -0.042024452 -0.06608064 0.05723077 -0.013133417 -0.010215937 -0.10833804 0.18567917
0.15335849 -0.03976646 0.003921398 -0.004193598 -0.09612341 -0.062636636 -0.02116051 -0.17221098
0.021959819 0.0692386 -0.026107227 -0.016015861 -0.011038367 -0.10746221 -0.07020281 0.040915485
0.036002178 -0.1291469 0.015859962 -0.06483944 0.004677346 0.0061209393 0.016672254 -0.03456422
0.02117298 -0.06563885 -0.13405682 -0.063899964 -0.02814657 0.00012786294 -0.03585353 -0.028561605
0.021232504 0.022255212 -0.040454593 0.04771594 -0.030900564 -0.10460056 0.021211332 -0.010728713
-0.008601446 -0.016789101 0.13456848 -0.058021273 0.08558193 -0.16103892 -0.013279922 0.08606135
-0.084473975 -0.035040744 0.03020305 0.11956262 0.051137835 -0.1075027 -0.025531644 0.0092348065
-0.04312122 0.0123399105 -0.059403528 -0.016318668 0.12865 0.055943202 -0.08153699 0.049213193
-0.07644427 -0.008514798 -0.057756547 0.0327837 -0.058852606 0.02771481 -0.02604138 -0.011407959
0.039986107 0.029105654 0.050067537 -0.06052183 0.037226565 -0.07751825 0.069918 0.1197244
0.018369947 -0.18254179 -0.023088101 -0.04640009 -0.02525892 -0.039551187 0.055849545 -0.010589002
-0.07351629 -0.022717396 -0.011795048 -0.014717887 0.018839926 -0.03371124 0.003470503 -0.024274595
0.032301705 0.12124356 -0.00028823165 0.0381682 -0.020353429 -0.111212865 -0.09834613 -0.16730197
0.014977769 -0.019284401 -0.05608509 -0.024705112 -0.012251028 -0.09010127 -0.038255967 0.0053300466
0.036700796 -0.002658743 -0.1742838 -0.014832105 0.0499597 -0.06086638 -0.029119322 0.0029929427
-0.089305274 0.11036134 0.075071745 -0.003134708 -0.08120818 -0.05330732 -0.087552465 -0.058066238
0.0013420824 -0.06524891 -0.02494738 0.004056727 -0.02587637 -0.044144675 -0.06106003 -0.0652792
-0.09259093 0.072215006 -0.11461817 0.12421046 -0.027102308 0.08006649 0.017363751 -0.16160758
-0.074242406 0.043594196 0.020135758 -0.11662685 -0.09377788 -0.0056185685 -0.001232254 -0.0725129
-0.080638036 -0.08204012 -0.056867763 0.012911892 0.09680262 0.009620791 -0.009373186 -0.032234274
0.049995854 -0.04376058 0.07896644 -0.0326709 0.004214381 0.08160235 -0.028786754 -0.038406763
-0.1110954 0.02186914 0.0063883103 -0.023574667 -0.030868208 -0.0079847295 -0.0073330626 0.053210486
-0.017891768 -0.036057655 -0.07818097 -0.10455363 -0.13216844 -0.0780839 0.046304088 -0.09826436
0.1397907 0.09576651 -0.05744278 -0.03764853 0.075643174 -0.041803047 -0.08922435 -0.20390505
-0.12737194 -0.07334808 -0.17805788 -0.025165712 -0.10565344 -0.10491212 -0.19035296 -0.08500026
-0.0019272007 -0.19338045 0.03183499 -0.012613715 -0.03329644 0.063313566 0.04499363 -0.01705467
-0.02636756 -0.07105489 0.030044556 0.023630897 0.100385405 0.042829208 -0.07400643 0.029527705
-0.011035585 -0.11046527 0.03041005 0.032715652 0.09892596 -0.04924419 -0.045742314 0.043575987
-0.06558632 0.024589762 -0.10976445 0.07174973 0.03492838 -0.13436587 -0.13933323 -0.059904773
0.013419454 0.032196704 -0.102978684 -0.11001323 -0.046207987 0.037323944 -0.017253676 -0.1099999
-0.024438731 0.07090025 0.08178226 -0.01588102 0.0010012352 -0.04765819 0.048787467 0.006216905
00000000: a3ea 1cbd d521 2cbd 4955 87bd d06a 6a3d
00000010: 8b2d 57bc bf60 27bc 56e0 ddbd ae22 3e3e
00000020: 020a 1d3e 28e2 22bd 127f 803b 736a 89bb
00000030: 5adc c4bd a347 80bd ce58 adbc 1358 30be
00000040: 14e5 b33c f8cc 8d3d d3de d5bc b233 83bc
00000050: 44da 34bc 2615 dcbd 7ec6 8fbd ff96 273d
00000060: 0577 133d 163f 04be c0ec 813c 8aca 84bd
00000070: 6c44 993b 2992 c83b 4094 883c 3693 0dbd
00000080: f572 ad3c a96d 86bd 3146 09be fcdd 82bd
00000090: a393 e6bc f212 0639 27db 12bd 07fa e9bc
000000a0: caef ad3c 9050 b63c b7b3 25bd ca71 433d
000000b0: 2e23 fdbc d238 d6bd 63c3 ad3c 7cc7 2fbc
000000c0: 14ed 0cbc 4c89 89bc 52cc 093e b7a7 6dbd
000000d0: 9445 af3d 63e7 24be 0894 59bc ef40 b03d
000000e0: b100 adbd e286 0fbd 636c f73c 3fdd f43d
000000f0: e875 513d 602a dcbd bd27 d1bc 964d 173c
00000100: e09f 30bd 562d 4a3c 1d51 73bd baae 85bc
00000110: d3bc 033e b324 653d defc a6bd c693 493d
00000120: d08e 9cbd a781 0bbc 2192 6cbd 3348 063d
00000130: 6e0f 71bd 2b0a e33c bb54 d5bc 73e8 3abc
00000140: 79c8 233d fb6e ee3c 9e13 4d3d bde5 77bd
00000150: e27a 183d e3c1 9ebd 2b31 8f3d 1132 f53d
00000160: 927c 963c 3cec 3abe 4223 bdbc 050e 3ebd
00000170: cbeb cebc 6d00 22bd 7ec2 643d 7e7d 2dbc
00000180: b58f 96bd d519 babc 0440 41bc 4b23 71bc
00000190: 3056 9a3c cc14 0abd 6171 633b 84db c6bc
000001a0: cb4e 043d 8b4e f83d cc1d 97b9 4256 1c3d
000001b0: 3cbc a6bc 92c3 e3bd b269 c9bd 3551 2bbe
000001c0: 5165 753c 52fa 9dbc 7bb9 65bd 6062 cabc
000001d0: 89b8 48bc 0487 b8bd 4ab2 1cbd aca7 ae3b
000001e0: 9353 163d 4e3e 2ebb 7477 32be 5b02 73bc
000001f0: 8ba2 4c3d 064f 79bd a58b eebc 3f25 443b
00000200: afe5 b6bd 2005 e23d 37bf 993d ac6f 4dbb
00000210: 7950 a6bd c758 5abd b54e b3bd ddd6 6dbd
00000220: d0e8 af3a 38a1 85bd 735e ccbc 4bee 843b
00000230: aefa d3bc 0cd1 34bd 151a 7abd 1ab1 85bd
00000240: 50a0 bdbd 76e5 933d eebc eabd 0e62 fe3d
00000250: a905 debc e6f9 a33d 6d3e 8e3c 757c 25be
00000260: 670c 98bd d48f 323d bff3 a43c 0fda eebd
00000270: 9e0e c0bd f81b b8bb 9583 a1ba a581 94bd
00000280: 8e25 a5bd a704 a8bd 2cee 68bd 668c 533c
00000290: 7440 c63d 86a0 1d3c fe91 19bc 1608 04bd
000002a0: 74c8 4c3d 4b3e 33bd 28b9 a13d ecd1 05bd
000002b0: ca18 8a3b 221f a73d 33d2 ebbc 6950 1dbd
000002c0: fc85 e3bd e926 b33c 0855 d13b a91f c1bc
000002d0: 53df fcbc 62d2 02bc 304a f0bb 3df3 593d
000002e0: c291 92bc 31b1 13bd 581d a0bd 3720 d6bd
000002f0: 2a57 07be 74ea 9fbd 5ba9 3d3d d33e c9bd
00000300: 4b25 0f3e 3b21 c43d 1f49 6bbd 5835 1abd
00000310: cfea 9a3d ac39 2bbd 42bb b6bd 7ccc 50be
00000320: ca6d 02be 8537 96bd ce54 36be 5328 cebc
00000330: d560 d8bd 2adc d6bd e3eb 42be 9e14 aebd
00000340: 209a fcba 8605 46be 6865 023d c1a9 4ebc
00000350: d961 08bd 8baa 813d 3e4b 383d 3cb6 8bbc
00000360: c800 d8bc 3a85 91bd 0020 f63c 9595 c13c
00000370: dd96 cd3d ae6d 2f3d af90 97bd 16e4 f13c
00000380: 99ce 34bc 9e3b e2bd 7f1e f93c d900 063d
00000390: b299 ca3d 47b4 49bd 4b5c 3bbd bc7c 323d
000003a0: 1f52 86bd 7870 c93c 2fcc e0bd 86f1 923d
000003b0: 1011 0f3d 3597 09be 5fad 0ebe b55e 75bd
000003c0: 45dd 5b3c b1e0 033d 7de6 d2bd 9e4e e1bd
000003d0: 9644 3dbd fee0 183d 9557 8dbc a147 e1bd
000003e0: bc33 c8bc 2634 913d 757d a73d ea18 82bc
000003f0: e13b 833a 3c35 43bd 5ed5 473d 2eb7 cb3b

cnn_a1_1.out_linear.bias f4 [64]
-0.07021402 -0.025301201 -0.026018294 -0.08454351 -0.0127797965 -0.0756057 -0.12785204 -0.0456298
-0.13186589 0.071439914 -0.021127999 -0.03657978 -0.102549255 -0.097387366 -0.062273707 -0.02880149
-0.019756908 -0.124533415 -0.06561468 -0.013505112 -0.081414394 -0.016273659 -0.093427956 -0.037603203
-0.057286404 -0.098879784 0.04384465 -0.02957639 -0.02863948 -0.109326646 -0.05721359 -0.047870416
-0.041310344 -0.033503566 0.07100567 0.05505356 -0.027098535 -0.12974147 -0.11645215 -0.09830307
-0.10477935 -0.07105431 -0.00471641 -0.03222994 -0.025529832 -0.02137341 -0.09661027 -0.06428447
-0.1251614 0.021400467 -0.0610151 0.016648378 -0.10538837 0.020027466 -0.004144549 -0.10481334
-0.09024802 -0.016014585 -0.07978978 -0.021261487 -0.13272886 -0.03340129 -0.063701935 -0.051573098
00000000: 5ecc 8fbd 7744 cfbc 5124 d5bc 2625 adbd
00000010: 5a62 51bc 29d7 9abd a5eb 02be 50e6 3abd
00000020: da07 07be 174f 923d a014 adbc aed4 15bd
00000030: 5805 d2bd 0773 c7bd b712 7fbd 1af1 ebbc
00000040: 3dd9 a1bc 600b ffbd fd60 86bd 8c44 5dbc
00000050: 97bc a6bd 5650 85bc 2857 bfbd d105 1abd
00000060: 26a5 6abd 7c81 cabd 7396 333d 2f4a f2bc
00000070: 589d eabc a6e6 dfbd cc58 6abd c513 44bd
00000080: 0935 29bd 093b 09bd 6c6b 913d d77f 613d
00000090: bffd ddbc f3da 04be 777e eebd 1f53 c9bd
000000a0: 8e96 d6bd ec84 91bd 1d8c 9abb 8b03 04bd
000000b0: f023 d1bc 4a17 afbc 9bdb c5bd 94a7 83bd
000000c0: 4f2a 00be 0850 af3c f8ea 79bd 2e62 883c
000000d0: dcd5 d7bd a410 a43c ffce 87bb 60a8 d6bd
000000e0: f4d3 b8bd 0531 83bc d368 a3bd 922c aebc
000000f0: 13ea 07be cbcf 08bd 2976 82bd 503e 53bd

cnn_a2_1.conv.weight f4 [32, 21, 2]
0.05505499 -0.18120606 0.025189618 0.16313021 -0.124557495 0.12645467 -0.058306564 -0.12466658
0.24009882 -0.15593676 0.09324868 0.2057009 0.040465493 -0.21807629 0.10203476 -0.07940112
0.07980471 -0.14652747 -0.12088854 0.15426847 0.21326007 0.08893785 -0.10456907 0.23634893
0.039348383 0.016967589 0.073957734 -0.026001126 -0.012007934 0.13532381 0.1388049 0.06509542
0.06890305 -0.062317196 0.25612667 -0.1446586 -0.22856465 0.11370871 0.10560883 0.023593167
0.21302365 -0.2077803 0.15082876 0.005769958 -0.18472095 0.041359838 -0.13951685 0.010756857
0.0057196445 -0.1673607 -0.029834067 -0.2101744 0.051725585 0.18233332 -0.06400719 -0.057712544
-0.06543977 0.07476941 -0.22047065 -0.029553346 -0.039839428 -0.2245233 0.20630705 0.065692835
0.07985978 -0.1071939 -0.20471746 -0.051513445 -0.11650965 -0.014812097 0.1314273 0.22059642
-0.2503993 -0.12932359 0.024178332 0.17753631 -0.004823273 -0.040993515 -0.027026694 -0.013383706
-0.008974293 0.14791915 -0.06756504 -0.0903344 -0.008593805 0.09301434 0.12579247 0.02256256
0.07697723 -0.03708261 -0.023706825 0.15425257 0.0962037 -0.031673025 0.03680688 -0.08996293
-0.029722553 -0.33432794 -0.024221683 -0.029006988 0.2692413 0.02754243 -0.27123258 0.043463357
0.14031206 -0.0028238753 -0.10035637 -0.07777597 -0.12223443 -0.060192022 0.03210789 0.07011313
0.23875213 0.2710551 -0.028284317 0.007805987 -0.16220735 -0.007962352 -0.1166854 0.16606717
-0.04373969 0.12670867 0.058782823 0.030648354 -0.01634693 0.017956097 0.124135315 -0.2079075
-0.020936454 -0.030612625 -0.21359205 -0.005596761 -0.02774653 0.011945706 0.10904017 0.22675477
0.07189311 0.0841867 0.06494264 -0.14041184 -0.07241844 -0.1226297 -0.13684346 -0.008710042
0.00076199445 -0.15972891 0.061322752 -0.10869254 0.18097126 0.06546901 0.065603584 0.21865252
-0.07255578 -0.00095735263 -0.15191606 -0.0735684 -0.07680805 -0.10202279 0.20576772 0.22794065
0.15367772 0.26902184 0.035578493 -0.0035696607 -0.14277387 0.066563495 -0.058514625 0.13041537
-0.097990885 -0.07052438 -0.031509634 -0.1336462 -0.013345099 0.03475823 -0.048097327 -0.19233629
0.02453169 0.14353585 0.031310808 -0.028451223 0.016293582 0.05887329 0.060228165 -0.17301595
0.29203427 -0.13042687 0.017290514 0.10873282 0.036620323 0.07506642 -0.026269067 0.012787988
-0.0774437 -0.07701684 -0.025655648 -0.014523031 0.10136525 0.32527137 0.0046544704 0.08161551
-0.19177026 0.02088397 0.14270455 0.119568735 -0.16472141 0.1697283 -0.006044134 -0.20180447
0.12090613 -0.121890455 0.0963342 0.05534066 0.11309029 -0.027034674 -0.05699558 -0.13615008
-0.0429766 -0.031082965 -0.22076127 0.096744135 -0.0299768 -0.027227093 -0.04545827 -0.21243712
-0.008775321 -0.1896041 0.021812532 -0.07382919 0.015261045 0.1841426 0.08373262 0.15795837
0.27025074 0.2626918 0.14012344 -0.0058521614 -0.12446318 0.04540214 -0.117050484 -0.07335027
-0.011656442 0.044373643 0.051844295 0.20763557 -0.20530088 0.14680861 -0.32691395 0.004732205
0.1377307 -0.19722897 -0.035122044 0.07135735 0.16527037 -0.008723648 -0.12976205 0.04632705
00000000: 5781 613d 158e 39be 755a ce3c 9b0b 273e
00000010: 0018 ffbd 557d 013e ddd2 6ebd 3151 ffbd
00000020: 77dc 753e e3ad 1fbe 2af9 be3d 42a3 523e
00000030: 25bf 253d 644f 5fbe 9af7 d03d 0e9d a2bd
00000040: a770 a33d 4c0b 16be 6994 f7bd 8ef8 1d3e
00000050: d960 5a3e 0c25 b63d 4f28 d6bd 7405 723e
00000060: c52b 213d 9dff 8a3c 2777 973d 5000 d5bc
00000070: edbc 44bc 5392 0a3e df22 0e3e bf50 853d
00000080: 0b1d 8d3d 5140 7fbd 0923 833e 6221 14be
00000090: da0c 6abe 1de0 e83d 7149 d83d 7546 c13c
000000a0: df22 5a3e 5cc4 54be db72 1a3e ea11 bd3b
000000b0: 7d27 3dbe ef68 293d 81dd 0ebe 873d 303c
000000c0: db6b bb3b 9a60 2bbe 9366 f4bc f537 57be
000000d0: 35de 533d 96b5 3a3e 3416 83bd fd63 6cbd
000000e0: 4905 86bd b420 993d 0fc3 61be dc19 f2bc
000000f0: ab2e 23bd 70e9 65be 2842 533e f789 863d
00000100: 868d a33d 7a88 dbbd 74a1 51be c3ff 52bd
00000110: 9d9c eebd 70ae 72bc e194 063e 07e4 613e
00000120: 5634 80be 676d 04be a311 c63c 14cc 353e
00000130: 8c0c 9ebb d1e8 27bd 1667 ddbc 5547 5bbc
00000140: ea08 13bc 1e78 173e 8a5f 8abd 3e01 b9bd
00000150: 08cd 0cbc 4d7e be3d becf 003e 1ed5 b83c
00000160: 3da6 9d3d efe3 17bd d134 c2bc 63f4 1d3e
00000170: 7206 c53d 93bb 01bd d0c2 163d 7c3e b8bd
00000180: b67c f3bc 082d abbe 8d6c c6bc 10a0 edbc
00000190: ffd9 893e aaa0 e13c ffde 8abe a206 323d
000001a0: f7ad 0f3e c410 39bb a487 cdbd 0249 9fbd
000001b0: 0b56 fabd e98b 76bd 9083 033d 7997 8f3d
000001c0: 707b 743e bcc7 8a3e 83b4 e7bc 5dc9 ff3b
000001d0: af19 26be 8674 02bc c1f8 eebd 830d 2a3e
000001e0: 6428 33bd ebbf 013e 42c6 703d 4212 fb3c
000001f0: ffe9 85bc aa18 933c a83a fe3d b4e5 54be
00000200: ed82 abbc 54c7 fabc e0b7 5abe 0965 b7bb
00000210: b14c e3bc ecb7 433c 7450 df3d 6732 683e
00000220: b23c 933d 146a ac3d a600 853d 1fc8 0fbe
00000230: 1e50 94bd 4825 fbbd b120 0cbe 90b4 0ebc
00000240: 95c0 473a fa8f 23be 912d 7b3d 329a debd
00000250: 8850 393e 9e14 863d 2c5b 863d 72e6 5f3e
00000260: 2098 94bd d9f6 7aba e28f 1bbe 08ab 96bd
00000270: 8a4d 9dbd 53f1 d0bd c6b4 523e 4669 693e
00000280: b15d 1d3e 3bbd 893e c1ba 113d f8f0 69bb
00000290: 5033 12be 7152 883d 08ad 6fbd 9b8b 053e
000002a0: 72af c8bd 166f 90bd 3f10 01bd 8dda 08be
000002b0: 67a5 5abc a55e 0e3d b401 45bd cef3 44be
000002c0: aff6 c83c 10fb 123e c33f 003d 8a12 e9bc
000002d0: 1e7a 853c 1e25 713d cfb1 763d 182b 31be
000002e0: 8485 953e 9f8e 05be d6a4 8d3c 50af de3d
000002f0: 31ff 153d 6cbc 993d 3a32 d7bc b684 513c
00000300: cd9a 9ebd 01bb 9dbd cb2b d2bc 02f2 6dbc
00000310: 9698 cf3d f889 a63e 8784 983b 0826 a73d
00000320: 6c5f 44be dc14 ab3c 2421 123e 74e0 f43d
00000330: bbac 28be 41cd 2d3e df0d c6bb d5a5 4ebe
00000340: a29d f73d b4a1 f9bd dd4a c53d e3ac 623d
00000350: e29b e73d d277 ddbc 3374 69bd ed6a 0bbe
00000360: 3b08 30bd b4a1 febc 3e0f 62be ca21 c63d
00000370: e891 f5bc 5a0b dfbc 7332 3abd 1e89 59be
00000380: 5dc6 0fbc 9427 42be 32b0 b23c c233 97bd
00000390: 7609 7a3c e18f 3c3e 027c ab3d d7bf 213e
000003a0: 4e5e 8a3e 8a7f 863e 857c 0f3e 7dc3 bfbb
000003b0: 8de6 febd 98f7 393d 2ab8 efbd ab38 96bd
000003c0: a9fa 3ebc 23c1 353d af5a 543d 6b9e 543e
000003d0: 653a 52be ff54 163e 4461 a7be 9d10 9b3b
000003e0: 4709 0d3e 64f6 49be 22dc 0fbd cd23 923d
000003f0: a33c 293e a2ed 0ebc 58e0 04be 6fc1 3d3d

cnn_a2_1.conv.bias f4 [32]
-0.12892652 -0.010867751 -0.071156956 -0.022010213 -0.05424403 -0.033983663 -0.11208768 -0.02196732
-0.060948618 -0.037010413 -0.05388454 -0.09944778 0.00064340146 0.005105059 0.00505173 -0.04577255
0.06842174 -0.0907168 -0.040991884 -0.14209756 0.02324404 0.04060506 0.054795798 -0.0689078
-0.06451816 -0.07625786 -0.14275613 -0.067277044 -0.03782213 0.06995327 -0.019226663 -0.025750669
00000000: 5005 04be a70e 32bc bdba 91bd c34e b4bc
00000010: fd2e 5ebd 7432 0bbd 3a8e e5bd cff4 b3bc
00000020: 42a5 79bd 3b98 17bd 09b6 5cbd 47ab cbbd
00000030: f1a9 283a 5748 a73b fc88 a53b ff7b 3bbd
00000040: b220 8c3d bbc9 b9bd 1be7 27bd 0682 11be
00000050: 496a be3c 7e51 263d 8f71 603d 881f 8dbd
00000060: 1922 84bd 152d 9cbd aa2e 12be 8cc8 89bd
00000070: 61eb 1abd a943 8f3d 3c81 9dbc 11f3 d2bc

cnn_a2_1.out_linear.weight f4 [64, 256]
0.060710505 -0.11524837 -0.221468 0.00808966 -0.0031561092 0.001484743 0.036753748 0.03241028
-0.0057848664 -0.15911259 -0.0055001075 0.21282266 0.20285572 0.16572084 -0.0791752 -0.26421845
-0.023075135 0.054613944 -0.040562887 -0.058564346 -0.13104054 -0.22921933 0.0013580888 -0.10308132
0.028416159 -0.084732346 0.13182189 0.26729855 0.14362706 0.12264355 -0.047372464 -0.06021214
0.12383091 0.09841242 -0.054738406 0.05413882 -0.05841628 0.048880633 -0.051219784 -0.13790172
0.021771234 -0.22956271 -0.120376386 0.097218595 0.13147908 -0.012955626 -0.2388577 -0.16661674
-0.1281622 -0.030128792 0.20338605 0.03379516 0.11955244 -0.05558094 0.005836114 0.022052731
-0.0668739 -0.13330351 0.08551074 0.03947218 0.0077924863 0.23726803 0.1741076 0.033066574
-0.15973431 0.04678093 0.13568883 0.0734931 0.09709991 -0.21705997 -0.049462613 0.043328114
-0.2941002 -0.022493483 0.14235584 -0.019822631 -0.121114954 -0.23638977 -0.1886453 0.105035596
0.050125517 0.1930118 0.06183926 -0.27842224 0.0045538596 -0.12513848 0.10408088 0.12158267
-0.047904994 0.11541216 0.16339941 -0.07290398 0.020159783 -0.090457425 0.007866484 -0.018399619
0.16405338 -0.055373438 -0.019886004 -0.06533304 -0.1380776 -0.06637528 -0.038972594 -0.10401654
0.026172161 0.09848189 -0.027148092 -0.0064982576 -0.21618326 -0.08743041 -0.006302107 0.03009084
-0.0031124991 0.09569959 -0.02046233 -0.107409835 -0.22248289 -0.26623127 -0.24103358 -0.042636402
-0.010460719 -0.081582166 -0.103135854 -0.055076133 0.0115406355 -0.09640615 -0.04038827 0.0124162445
-0.14224252 -0.103517555 -0.05291594 0.029841624 0.018659739 -0.19391036 -0.109586306 -0.03692274
0.1289014 0.062302925 -0.058992084 0.07358749 0.151742 -0.018746873 -0.20577848 -0.0384995
-0.008907908 -0.10770309 -0.238274 -0.18360153 -0.21002698 -0.14738804 0.008424398 0.13473433
-0.010848137 -0.05154222 0.012659413 0.11932274 -0.01632575 -0.12872228 0.0718346 0.1266946
0.00059958705 0.047437873 -0.078358866 0.17812338 0.07523988 0.14807913 0.15908262 -0.007847982
-0.04742554 -0.17804468 0.030633409 0.06747123 -0.051891115 -0.031781603 -0.2489477 -0.06520227
0.121443816 0.03206279 0.11748915 0.0774417 -0.008951708 -0.049400367 -0.051611144 0.021581039
0.11200671 0.037282325 0.2562896 0.07632595 -0.17024066 0.036202364 0.113311574 0.044560354
-0.013302573 0.08060197 0.05732581 0.052061323 0.18912606 -0.1276017 -0.24137303 0.04569099
0.23997721 0.20653133 0.06805793 0.06992405 0.035163272 0.0438975 -0.083532676 -0.24016121
-0.005424832 0.076692246 -0.11634163 0.008952046 0.07015141 -0.06423704 0.11778013 0.063153036
0.028933715 0.054878715 -0.07058424 -0.15763985 -0.22939631 -0.20136939 -0.11902851 -0.049757544
0.01687884 -0.08735496 -0.104398616 -0.05791303 -0.082833625 0.08744764 -0.061442308 -0.021346577
0.086243875 0.11491643 0.022843625 -0.14829408 -0.020177735 0.06451753 0.038504954 0.11788469
0.0828309 0.16084777 0.12545355 -0.050211728 -0.14403607 -0.12151243 0.0054816743 0.066774525
-0.063152224 -0.23201248 -0.03849229 -0.022170227 -0.020613784 -0.08314332 -0.009953243 0.00093968975
00000000: 94ab 783d 5607 ecbd 82c8 62be 7e8a 043c
00000010: bad6 4ebb b59b c23a 198b 163d a4c0 043d
00000020: fa8e bdbb 69ee 22be 3f3a b4bb 2fee 593e
00000030: 69b9 4f3e b9b2 293e 9b26 a2bd a447 87be
00000040: 1108 bdbc dfb2 5f3d 4525 26bd 2be1 6fbd
00000050: 7e2f 06be 79b8 6abe e601 b23a 4d1c d3bd
00000060: 01c9 e83c 2788 adbd 51fc 063e 5bdb 883e
00000070: f912 133e 8b2c fb3d a109 42bd 01a1 76bd
00000080: 0f9b fd3d 738c c93d 6135 60bd abc0 5d3d
00000090: e945 6fbd 0f37 483d d6cb 51bd 1c36 0dbe
000000a0: 9659 b23c 7d12 6bbe e587 f6bd 8b1a c73d
000000b0: 74a2 063e d543 54bc 1d97 74be 949d 2abe
000000c0: f43c 03be a8d0 f6bc 6f44 503e cb6c 0a3d
000000d0: e9d7 f43d d7a8 63bd df3c bf3b eea7 b43c
000000e0: 2ff5 88bd b780 08be 4120 af3d 95ad 213d
000000f0: 1d58 ff3b 64f6 723e 4349 323e d170 073d
00000100: 6491 23be 5c9d 3f3d 03f2 0a3e 8d83 963d
00000110: 51dc c63d f844 5ebe 4f99 4abd d278 313d
00000120: 4d94 96be 4144 b8bc bbc5 113e 1263 a2bc
00000130: 1e0b f8bd 2910 72be 3c2c 41be e71c d73d
00000140: 6a50 4d3d e3a4 453e 2a4b 7d3d 5c8d 8ebe
00000150: 8b38 953b 4d24 00be 5b28 d53d 5600 f93d
00000160: 0738 44bd 365d ec3d 2d52 273e af4e 95bd
00000170: 2126 a53c be41 b9bd 6de2 003c ccba 96bc
00000180: 9cfd 273e 42cf 62bd f9e7 a2bc 54cd 85bd
00000190: 3764 0dbe c3ef 87bd baa1 1fbd a006 d5bd
000001a0: 0067 d63c e0b0 c93d ad65 debc 56ef d4bb
000001b0: 255f 5dbe b70e b3bd e881 cebb 1181 f63c
000001c0: 12fb 4bbb 26fe c33d 9ea0 a7bc b0f9 dbbd
000001d0: 8ed2 63be 774f 88be 82d1 76be 82a3 2ebd
000001e0: 6f63 2bbc 8d14 a7bd e438 d3bd 8397 61bd
000001f0: ef14 3d3c 9670 c5bd 2c6e 25bd 816d 4b3c
00000200: 06a8 11be 0301 d4bd 62be 58bd 6c76 f43c
00000210: 4fdc 983c 7090 46be c96e e0bd 4d3c 17bd
00000220: bbfe 033e 5a31 7f3d afa1 71bd 0ab5 963d
00000230: 4162 1b3e 0b93 99bc 98b7 52be a7b1 1dbd
00000240: 79f2 11bc 7093 dcbd 19fe 73be 0a02 3cbe
00000250: 5011 57be e4ec 16be 7c06 0a3c ccf7 093e
00000260: 62bc 31bc ef1d 53bd 6d69 4f3c 7b5f f43d
00000270: 94bd 85bc c6cf 03be 051e 933d 3bbc 013e
00000280: 9b2d 1d3a 374e 423d 9d7a a0bd fa65 363e
00000290: 5e17 9a3d 0ea2 173e 8ee6 223e d394 00bc
000002a0: 4841 42bd 5851 36be eaf2 fa3c 5b2e 8a3d
000002b0: c78b 54bd 6d2d 02bd 25ec 7ebe c588 85bd
000002c0: 89b7 f83d 4654 033d 279e f03d c199 9e3d
000002d0: 2faa 12bc 0a58 4abd 3566 53bd b8ca b03c
000002e0: c663 e53d 5ab5 183d 6438 833e c850 9c3d
000002f0: 9153 2ebe ee48 143d e60f e83d eb84 363d
00000300: 09f3 59bc a512 a53d 78ce 6a3d 413e 553d
00000310: 43aa 413e 05aa 02be 7e2a 77be 7a26 3b3d
00000320: 96bc 753e f37c 533e f561 8b3d 5734 8f3d
00000330: 5d07 103d ddcd 333d 2e13 abbd d2ec 75be
00000340: cac2 b1bb d310 9d3d 8544 eebd 9aab 123c
00000350: 8bab 8f3d b68e 83bd b536 f13d 6156 813d
00000360: 6606 ed3c 81c8 603d 788e 90bd 576c 21be
00000370: dee6 6abe c733 4ebe 38c5 f3bd 91ce 4bbd
00000380: 7e45 8a3c 28e7 b2bd f1ce d5bd 3736 6dbd
00000390: ada4 a9bd c017 b33d eeaa 7bbd 04df aebc
000003a0: a1a0 b03d 4e59 eb3d 8e22 bb3c 67da 17be
000003b0: c74b a5bc c421 843d 5fb7 1d3d 876d f13d
000003c0: 3fa3 a93d 47b5 243e e576 003e d0aa 4dbd
000003d0: 317e 13be 82db f8bd 9e9f b33b 15c1 883d
000003e0: f455 81bd ae94 6dbe 17aa 1dbd 569e b5bc
000003f0: 3dde a8bc 0c47 aabd ed12 23bc 8355 763a

cnn_a2_1.out_linear.bias f4 [64]
0.025166504 -0.016806547 -0.05393726 -0.08242674 -0.0059417854 0.053437404 -0.11014576 -0.02390989
-0.04656944 -0.0323614 -0.103661194 -0.10682758 -0.071712516 -0.01595162 -0.17615083 -0.07646033
0.003683047 -0.10693807 -0.14701323 -0.057446953 -0.054091826 0.03157177 -0.07505172 -0.12060259
-0.03671438 -0.13672091 0.026304124 -0.06300596 -0.107643224 -0.10511186 0.04549667 -0.07247004
-0.057897247 -0.06240567 -0.16252136 -0.053215094 0.116083026 0.14968726 -0.036043014 -0.05975078
0.041703064 -0.08816953 0.00092956366 -0.12711446 -0.14729609 -0.011341451 0.03996633 -0.10541776
-0.016385576 -0.054838814 -0.11963212 -0.004099015 0.08613176 0.05786838 -0.0068453685 -0.07470195
-0.010289196 -0.14402138 -0.13091505 -0.018016104 -0.1021547 -0.03968228 -0.051113933 -0.055810735
00000000: fc29 ce3c e2ad 89bc 51ed 5cbd 5acf a8bd
00000010: 4fb3 c2bb 2ee1 5a3d 1a94 e1bd acde c3bc
00000020: 99bf 3ebd 638d 04bd 524c d4bd 6bc8 dabd
00000030: 03de 92bd f9ac 82bc e260 34be 3c97 9cbd
00000040: 465f 713b 5902 dbbd a38a 16be 7f4d 6bbd
00000050: 648f 5dbd 6651 013d b7b4 99bd 7efe f6bd
00000060: d161 16bd 9100 0cbe bf7b d73c 4509 81bd
00000070: 0d74 dcbd e344 d7bd b75a 3a3d 2c6b 94bd
00000080: aa25 6dbd 169d 7fbd 006c 26be 12f8 59bd
00000090: f0bc ed3d 9e47 193e d7a1 13bd 3cbd 74bd
000000a0: d5d0 2a3d 3a92 b4bd f6ad 733a 4b2a 02be
000000b0: c9d4 16be 7ed1 39bc bcb3 233d 44e5 d7bd
000000c0: 0b3b 86bc aa9e 60bd af01 f5bd 0851 86bb
000000d0: d965 b03d 6507 6d3d 1d4f e0bb 56fd 98bd
000000e0: 0494 28bc 577a 13be 980e 06be 8296 93bc
000000f0: 7c36 d1bd e389 22bd d85c 51bd cc99 64bd
