example_run/save_dir/cnn/model.pt (torch, 953727 bytes, 33 tensors)

cnn_pep_1.conv.weight f4 [32, 21, 2]
-0.17361577 -0.011713267 -0.14746873 -0.2793404 -0.0015677201 -0.1054157 0.05100696 0.08504137
-0.2041398 -0.047471125 -0.2014541 0.07125021 -0.08988237 -0.033875793 -0.1585164 -0.1290661
-0.019473774 0.0040622265 -0.081197426 0.03327812 0.13147283 0.3341443 -0.0018811296 0.09782295
-0.06251525 -0.08832289 0.30543372 -0.07417572 -0.090929486 0.12391275 -0.1484089 0.09535237
-0.034463514 -0.04360729 -0.1901213 -0.24965599 -0.1381548 0.23838016 -0.020231064 0.034068096
0.12889673 -0.013233826 -0.09196513 -0.1864519 -0.23701647 -0.1968157 0.17727676 0.30803248
0.0002203211 -0.077489674 0.3897235 0.44861445 0.1723415 0.07947637 0.2740888 0.10297463
0.031085022 -0.051297687 -0.17193127 -0.17141126 0.13044198 -0.020206448 -0.19136506 -0.05552129
0.06433551 -0.13706926 -0.04438612 -0.031008193 0.23757663 0.24585609 -0.07974919 -0.06577571
0.021172848 0.26509088 -0.105624415 0.07575445 -0.017070655 0.040453862 0.061727986 -0.034021847
-0.03507582 0.12075074 0.17869706 -0.052116655 0.20261966 -0.007172721 -0.066128485 -0.132334
0.03434423 0.09140546 -0.07040244 0.20336157 0.08165485 -0.09588609 -0.03824708 -0.010589706
-0.05981025 -0.07987325 -0.23676391 -0.19130443 0.11266463 0.2652507 -0.24849986 0.030797588
-0.26102814 -0.013678574 0.020678442 -0.16700177 0.17007275 0.079992205 -0.011914946 0.042645734
-0.0272714 0.18798265 0.040428787 -0.31768182 -0.18912421 -0.16976894 0.32778412 0.31481418
-0.23324552 -0.14232425 -0.02987267 0.10797415 -0.28452182 -0.28519484 0.047133844 -0.17687249
-0.078764066 -0.09164349 -0.23570688 -0.000682869 -0.12149811 0.13780962 -0.05758934 0.09236607
-0.081582054 0.19524181 -0.029878123 0.007961077 0.17118241 0.18171845 0.11313178 -0.13859987
0.056889936 -0.15612145 0.21138771 0.22187887 -0.025060099 -0.2734503 -0.12916909 -0.19093214
0.073526315 0.17125006 0.05526941 -0.121601075 0.057028156 0.04738148 -0.2096889 -0.05614583
-0.10677322 -0.023080494 -0.03561214 -0.1029505 0.08308265 -0.113990024 -0.15318672 0.018520154
-0.25781354 0.030271675 0.031989254 -0.24422365 0.18060756 0.12757565 -0.2855669 -0.017057449
-0.084520645 0.013862589 0.08500452 0.061964303 0.19324788 -0.05785766 0.22328036 0.16543704
0.12055399 0.13785285 -0.1573872 0.011602563 -0.15126827 -0.037246075 -0.048017886 -0.008852852
-0.07921153 0.061985232 -0.09603296 -0.25052416 -0.29610103 0.0827359 0.022650395 -0.062143262
-0.0416981 0.19655114 -0.31662065 -0.095070794 0.34295824 0.300436 -0.116550624 0.008367172
0.062633164 -0.006012418 -0.1642507 -0.17373998 -0.20999657 -0.21200837 0.16779864 0.3340138
0.02072243 -0.12903275 0.2007175 -0.12925592 -0.072911106 0.023746714 0.38084963 0.26852715
-0.2812266 0.09245393 -0.2917367 0.043525208 -0.07208715 -0.05208949 0.08768788 0.13295157
-0.090359665 -0.07257537 -0.13075463 0.046956155 0.13654882 0.18407004 -0.15221556 -0.20713328
-0.03353092 -0.21562038 -0.052818477 0.040421527 0.08943411 0.07242651 0.09862056 -0.33097112
0.042250972 -0.21345541 -0.14354555 0.1149121 0.19005075 -0.23529139 -0.061698645 -0.10131427
00000000: 55c8 31be 01e9 3fbc 0b02 17be b405 8fbe
00000010: f57b cdba 30e4 d7bd adec 503d 2b2a ae3d
00000020: 060a 51be 1571 42bd fc49 4ebe a1eb 913d
00000030: 3f14 b8bd 58c1 0abd 2052 22be e729 04be
00000040: 7787 9fbc 6d1c 853b d64a a6bd a34e 083d
00000050: d0a0 063e f614 ab3e 3c90 f6ba 6657 c83d
00000060: ff07 80bd a2e2 b4bd cf61 9c3e 71e9 97bd
00000070: 3d39 babd f8c5 fd3d 81f8 17be 1a48 c33d
00000080: 9d29 0dbd 8f9d 32bd 28af 42be d2a5 7fbe
00000090: 7478 0dbe ee19 743e 9ebb a5bc fd8a 0b3d
000000a0: 81fd 033e b0d2 58bc 3758 bcbd 3fed 3ebe
000000b0: 72b4 72be 0e8a 49be 0a88 353e 6fb6 9d3e
000000c0: ff05 6739 e8b2 9ebd d789 c73e cbb0 e53e
000000d0: 4a7a 303e 82c4 a23d 5e55 8c3e 5de4 d23d
000000e0: 04a6 fe3c 861d 52bd c00e 30be 6f86 2fbe
000000f0: 9592 053e fe87 a5bc 34f5 43be 4b6a 63bd
00000100: 56c2 833d e25b 0cbe 38ce 35bd e504 febc
00000110: 4a47 733e b3c1 7b3e 8b53 a3bd 6ab5 86bd
00000120: ae72 ad3c feb9 873e 9d51 d8bd 2625 9b3d
00000130: c2d7 8bbc f3b2 253d 7cd6 7c3d 7e5a 0bbd
00000140: aaab 0fbd 2a4c f73d 5dfc 363e 4678 55bd
00000150: 877b 4f3e 2509 ebbb 5f6e 87bd 9082 07be
00000160: 89ac 0c3d c932 bb3d 282f 90bd 043e 503e
00000170: a83a a73d ed5f c4bd f8a8 1cbd 7280 2dbc
00000180: 98fb 74bd 9694 a3bd 3d72 72be 4fe5 43be
00000190: b7bc e63d f1ce 873e bf76 7ebe 394b fc3c
000001a0: 7ba5 85be 191c 60bc d665 a93c 8302 2bbe
000001b0: 8d27 2e3e f4d2 a33d e836 43bc 4bad 2e3d
000001c0: 4568 dfbc 867e 403e a898 253d 31a7 a2be
000001d0: c7a9 41be e9d7 2dbe 52d3 a73e 532f a13e
000001e0: ead7 6ebe 73bd 11be 88b7 f4bc 8d21 dd3d
000001f0: d8ac 91be 0f05 92be 6b0f 413d 101e 35be
00000200: 0e4f a1bd 95af bbbd 255d 71be 9002 33ba
00000210: 00d4 f8bd f71d 0d3e cde2 6bbd 6c2a bd3d
00000220: 7e14 a7bd 78ed 473e f7c2 f4bc 2d6f 023c
00000230: 714a 2f3e 6714 3a3e a2b1 e73d 20ed 0dbe
00000240: 6c05 693d 4dde 1fbe 0576 583e 3734 633e
00000250: d64a cdbc ad01 8cbe e744 04be b783 43be
00000260: f794 963d 2d5c 2f3e 2d62 623d fc09 f9bd
00000270: 5b96 693d 1513 423d b0b8 56be 2bf9 65bd
00000280: ebab dabd 4e13 bdbc 09de 11bd b6d7 d2bd
00000290: 3d27 aa3d 9a73 e9bd fbdc 1cbe 94b7 973c
000002a0: 2300 84be 4efc f73c 2a07 033d c415 7abe
000002b0: 30f1 383e 31a3 023e d335 92be 10bc 8bbc
000002c0: 2919 adbd ea1f 633c da16 ae3d 48ce 7d3d
000002d0: c6e2 453e 27fc 6cbd 9ba3 643e 5468 293e
000002e0: 03e5 f63d 4c29 0d3e 1c2a 21be ad18 3e3c
000002f0: 12e6 1abe 578f 18bd 67ae 44bd 8d0b 11bc
00000300: a839 a2bd 3ae4 7d3d eeac c4bd b444 80be
00000310: 8e9a 97be 7171 a93d 528d b93c ef89 7ebd
00000320: a0cb 2abd b444 493e 1a1c a2be 7ab4 c2bd
00000330: 3998 af3e bfd2 993e 18b2 eebd 7716 093c
00000340: d145 803d d103 c5bb 5631 28be e5e8 31be
00000350: 5709 57be b918 59be 68d3 2b3e db03 ab3e
00000360: 16c2 a93c 2921 04be e388 4d3e aa5b 04be
00000370: 6b52 95bd 7888 c23c b9fe c23e 647c 893e
00000380: effc 8fbe 7c58 bd3d 835e 95be 7d47 323d
00000390: 6da2 93bd ca5b 55bd b495 b33d 7524 083e
000003a0: 7d0e b9bd 65a2 94bd 8be4 05be 1955 403d
000003b0: 74d3 0b3e db7c 3c3e 65de 1bbe bf1a 54be
000003c0: b857 09bd 97cb 5cbe 3058 58bd 0b91 253d
000003d0: 3b29 b73d 5a54 943d 93f9 c93d 0c75 a9be
000003e0: 5b0f 2d3d 0e94 5abe 9bfd 12be 0957 eb3d
000003f0: aa9c 423e 3af0 70be b8b7 7cbd db7d cfbd

cnn_pep_1.conv.bias f4 [32]
-0.031855643 -0.0023318264 0.12130619 -0.051216748 0.002158314 0.08871599 -0.066388585 0.044470508
0.057743743 0.006302419 0.030948667 0.06370308 -0.014013819 -0.01019193 -0.010743333 -0.027035225
0.00811471 0.031533692 -0.0461223 0.033826794 0.023465663 -0.031139683 0.023702845 -0.061666917
-0.077406056 0.046434946 -0.035228863 0.015343499 -0.05161804 -0.03300433 0.026137618 0.06539318
00000000: 107b 02bd 8ed1 18bb 616f f83d a7c8 51bd
00000010: 8072 0d3b bbb0 b53d bdf6 87bd b526 363d
00000020: b484 6c3d 8684 ce3b 0f88 fd3c c376 823d
00000030: 389a 65bc 0efc 26bc ce04 30bc fa78 ddbc
00000040: 90f3 043c 7929 013d bdea 3cbd f78d 0a3d
00000050: 103b c03c a618 ffbc 782c c23c 7396 7cbd
00000060: 1187 9ebd 9232 3e3d 244c 10bd 4d63 7b3c
00000070: 706d 53bd 8c2f 07bd 8f1e d63c dcec 853d

cnn_pep_1.out_linear.weight f4 [64, 320]
0.03839893 -0.04071233 -0.09205616 -0.036388624 -0.059572577 -0.05654339 0.0141988415 -0.09543541
-0.055587895 0.20943114 -0.20024027 -0.11138576 -0.07079267 0.06383653 -0.07344188 -0.030608283
-0.0016316817 -0.01571495 -0.032065947 -0.003044952 -0.07963675 -0.09875423 -0.044224136 -0.049519982
-0.10015938 -0.13412528 -0.09132822 -0.071238354 -0.06309148 -0.03167212 -0.10415847 -0.0003255831
0.074108034 -0.019477194 0.07118609 0.05881396 0.13812172 0.013041091 -0.000189517 -0.07055779
-0.019348832 -0.036929477 -0.010783349 0.0030648028 -0.03187656 -0.028065376 -0.014893997 -0.0068306024
-0.057622842 -0.011220862 -0.022813678 0.004411876 -0.12017087 -0.21502604 -0.07667563 -0.020858841
0.06753629 -0.086063996 -0.20760535 -0.16791864 -0.171418 -0.043869004 -0.017772557 -0.09503417
0.07405317 0.062338132 -0.0051769484 -0.019171102 0.005310864 0.07245269 -0.10514458 -0.12746465
-0.10528238 -0.12544951 -0.0026989316 -0.020349141 -0.011955299 -0.088992395 -0.063916765 -0.13382468
-0.07848405 -0.045931544 -0.12748525 -0.1183168 -0.05497042 -0.11347633 -0.096811764 -0.13817428
-0.08632355 -0.03922788 0.0044174576 -0.10052653 -0.010929568 -0.16962774 -0.121943675 -0.031608593
-0.03649608 0.0032469467 -0.08094445 -0.12165643 -0.14747953 -0.07950954 -0.012740476 0.19702516
0.10123166 0.076853134 0.06631232 0.047953423 0.066443674 0.01626536 -0.11885392 -0.14574856
0.030666681 -0.052991383 -0.09300859 0.016778542 -0.04554855 -0.10717655 -0.02298431 0.03365984
0.0016675243 -0.051758587 0.008004175 -0.06373035 -0.060222276 -0.11498759 0.011325996 -0.048011225
-0.124871746 -0.026110774 -0.14055185 0.07976213 -0.0038497022 0.016400315 0.016695205 -0.04754317
-0.012841821 0.015287012 0.110025145 -0.024461474 -0.09440243 -0.13555421 -0.048580375 -0.047824733
0.048549514 -0.003119193 -0.1267551 -0.21407284 -0.09705866 -0.02092929 -0.160473 0.0484318
0.0061503854 -0.1635619 0.03355027 -0.0740354 0.01183223 -0.14096124 -0.112719454 -0.07783818
-0.07881884 -0.07375927 -0.06493076 -0.10139524 0.014386625 0.020002188 -0.06890627 -0.045633003
-0.039502878 0.13656883 -0.11257415 -0.16936807 -0.14756733 -0.063562006 -0.12149858 -0.0031582469
0.033655766 -0.017409587 -0.030306302 -0.019501215 0.0044191135 -0.03622166 -0.0698787 -0.28436053
-0.08941747 -0.0890214 -0.12797064 -0.15591265 0.10101968 0.008528784 -0.1664502 -0.17521076
-0.18454026 -0.06503449 -0.043856557 -0.011474659 0.0053316634 -0.11929828 -0.12754673 -0.010063366
0.005315874 -0.1428395 -0.22075014 -0.10618115 -0.056038637 -0.016702853 -0.1252805 -0.10736682
-0.017551476 0.0754535 -0.16931322 -0.07972334 0.075805455 -0.05147937 -0.0916721 -0.081592634
-0.15027684 -0.08221967 -0.017045647 -0.037031967 -0.13923848 0.020569718 -0.077738635 -0.03538877
-0.05312425 0.07623112 0.04028229 0.03985043 0.004419246 -0.06825085 0.05814038 -0.10157932
-0.045010895 0.13853343 0.081166856 0.080959424 -0.0648443 -0.047176328 0.011407308 0.017458154
-0.17807974 -0.18011135 0.038489718 -0.0036607122 -0.031863045 0.052767478 -0.030668348 0.106322974
0.029607318 -0.14802827 -0.049860682 -0.035070445 -0.06016224 -0.025807742 -0.04254784 -0.011975614
00000000: 3248 1d3d f9c1 26bd f187 bcbd 3d0c 15bd
00000010: 6002 74bd 0b9a 67bd 42a2 683c a473 c3bd
00000020: 22b0 63bd 1e75 563e c90b 4dbe 381e e4bd
00000030: bffb 90bd babc 823d b268 96bd 39be fabc
00000040: 27de d5ba a4bc 80bc 9557 03bd d18d 47bb
00000050: 9818 a3bd a83f cabd 5e24 35bd 77d5 4abd
00000060: 5c20 cdbd 2358 09be 4a0a bbbd 6ae5 91bd
00000070: 1b36 81bd a0ba 01bd 0951 d5bd 06b3 aab9
00000080: f4c5 973d a38e 9fbc 03ca 913d e8e6 703d
00000090: c86f 0d3e 4daa 553c 15b9 46b9 9a80 90bd
000000a0: 7181 9ebc 5d43 17bd a5ac 30bc dcda 483b
000000b0: ff90 02bd 5ce9 e5bc f405 74bc 3fd3 dfbb
000000c0: ee05 6cbd b5d7 37bc c0e3 babc 8091 903b
000000d0: 251c f6bd c92f 5cbe 1d08 9dbd 29e0 aabc
000000e0: 7750 8a3d 5242 b0bd 7f96 54be ddf2 2bbe
000000f0: 3388 2fbe fcaf 33bd c197 91bc 46a1 c2bd
00000100: 30a9 973d 4556 7f3d 64a3 a9bb b70c 9dbc
00000110: c206 ae3b 1362 943d 0b56 d7bd 1886 02be
00000120: 4a9e d7bd d675 00be 8fe0 30bb 3eb3 a6bc
00000130: 29e0 43bc a541 b6bd cbe6 82bd 5609 09be
00000140: 3fbc a0bd b722 3cbd 7e8b 02be 1450 f2bd
00000150: aa28 61bd 4766 e8bd 3f45 c6bd 8f7d 0dbe
00000160: 67ca b0bd 6aad 20bd 52c0 903b dae0 cdbd
00000170: ee11 33bc e5b2 2dbe 9bbd f9bd 0378 01bd
00000180: ea7c 15bd baca 543b 34c6 a5bd 0227 f9bd
00000190: e004 17be e6d5 a2bd 6ebd 50bc f7c0 493e
000001a0: 8b52 cf3d 2d65 9d3d c1ce 873d cf6a 443d
000001b0: 9f13 883d ef3e 853c af69 f3bd 1c3f 15be
000001c0: b138 fb3c 7e0d 59bd 4a7b bebd 2773 893c
000001d0: 1e91 3abd 617f dbbd 9749 bcbc e6de 093d
000001e0: d590 da3a d000 54bd f123 033c 0f85 82bd
000001f0: a2ab 76bd 9d7e ebbd ac90 393c 6ba7 44bd
00000200: c2bc ffbd 43e6 d5bc d3ec 0fbe 545a a33d
00000210: 494b 7cbb f459 863c 62c4 883c a1bc 42bd
00000220: 8066 52bc 6076 7a3c dd54 e13d 6e63 c8bc
00000230: 1056 c1bd b9ce 0abe 37fc 46bd dee3 43bd
00000240: dbdb 463d 606b 4cbb 17cc 01be e935 5bbe
00000250: b1c6 c6bd e773 abbc 0953 24be 6c60 463d
00000260: 2c89 c93b c57c 27be 026c 093d df9f 97bd
00000270: f8db 413c 2558 10be 75d9 e6bd a069 9fbd
00000280: c66b a1bd 1a0f 97bd 6bfa 84bd 4fa8 cfbd
00000290: e1b5 6b3c a1db a33c bb1e 8dbd ace9 3abd
000002a0: c5cd 21bd b3d8 0b3e 478d e6bd d36e 2dbe
000002b0: e41b 17be cc2c 82bd 3fd4 f8bd 97fa 4ebb
000002c0: a1da 093d 8d9e 8ebc ec44 f8bc 03c1 9fbc
000002d0: 36ce 903b 2a5d 14bd 901c 8fbd b497 91be
000002e0: 8220 b7bd da50 b6bd bc0a 03be 91a7 1fbe
000002f0: 68e3 ce3d 50bc 0b3c ec71 2abe 736a 33be
00000300: 1ff8 3cbe cd30 85bd efa2 33bd 3500 3cbc
00000310: 3cb5 ae3b a852 f4bd 9c9b 02be d1e0 24bc
00000320: c830 ae3b 8544 12be 530c 62be 8175 d9bd
00000330: c588 65bd 6cd4 88bc 8849 00be 23e3 dbbd
00000340: 1dc8 8fbc 5d87 9a3d 7260 2dbe fe45 a3bd
00000350: e43f 9b3d 08dc 52bd 95be bbbd 0a1a a7bd
00000360: 2ce2 19be c962 a8bd 50a3 8bbc d5ae 17bd
00000370: 8894 0ebe d381 a83c 6f35 9fbd d1f3 10bd
00000380: d098 59bd 101f 9c3d 0bff 243d 343a 233d
00000390: 53cf 903b 1ac7 8bbd 9b24 6e3d d208 d0bd
000003a0: 585d 38bd b5db 0d3e cf3a a63d 0ece a53d
000003b0: 17cd 84bd f73b 41bd b8e5 3a3c 6704 8f3c
000003c0: 895a 36be 1c6f 38be 65a7 1d3d 8fe8 6fbb
000003d0: d382 02bd b622 583d 303c fbbc dcbf d93d
000003e0: 0c8b f23c b994 17be b73a 4cbd 07a6 0fbd
000003f0: ae6c 76bd c26a d3bc a546 2ebd 5e35 44bc

cnn_pep_1.out_linear.bias f4 [64]
-0.13353974 -0.141561 -0.10725881 -0.08386321 -0.0841314 -0.14756137 -0.04325166 -0.118705295
-0.14058183 -0.15616894 0.026269061 0.04702864 0.10475149 -0.12142058 0.0013821718 0.06955312
-0.059584297 0.052036602 -0.1348071 -0.128333 -0.10867815 -0.11954511 0.14361815 -0.20099305
-0.06187382 -0.22981523 0.12295937 -0.059954043 -0.074980475 0.15275334 -0.15233928 -0.06409034
-0.15751822 0.07769256 0.07692439 0.16399889 -0.062453967 -0.04390839 -0.09775492 -0.107629396
0.06873867 -0.009807799 0.12627466 -0.09305572 0.15014483 -0.13635094 -0.07521131 0.0010039712
-0.062850654 -0.007964149 0.13012333 0.1606338 0.09573804 -0.16733609 -0.040363904 -0.08967178
-0.041130967 -0.09098416 -0.16263337 -0.043792017 -0.1027173 -0.16524139 -0.085869126 -0.1295802
00000000: a4be 08be 5ef5 10be 82aa dbbd 7ac0 abbd
00000010: 154d acbd 541a 17be a728 31bd c31b f3bd
00000020: aff4 0fbe c0ea 1fbe 3732 d73c 1aa1 403d
00000030: f387 d63d 5aab f8bd fd29 b53a de71 8e3d
00000040: aa0e 74bd 5524 553d df0a 0abe ba69 03be
00000050: a692 debd 11d4 f4bd a310 133e 1fd1 4dbe
00000060: 676f 7dbd af54 6bbe 1fd2 fb3d 5f92 75bd
00000070: 5d8f 99bd 5f6b 1c3e d4fe 1bbe cc41 83bd
00000080: 754c 21be 471d 9f3d 898a 9d3d 53ef 273e
00000090: bbcf 7fbd 49d9 33bd bb33 c8bd cd6c dcbd
000000a0: dcc6 8c3d e4b0 20bc 254e 013e ff93 bebd
000000b0: 91bf 193e 959f 0bbe 6308 9abd af97 833a
000000c0: d8b7 80bd 107c 02bc 0d3f 053e 307d 243e
000000d0: 4e12 c43d 275a 2bbe 9f54 25bd d7a5 b7bd
000000e0: f278 28bd e755 babd 5d89 26be 425f 33bd
000000f0: 735d d2bd 0a35 29be 27dc afbd acb0 04be

cnn_a1_1.conv.weight f4 [32, 21, 2]
-0.12725696 0.04697913 0.09668638 0.014931123 -0.17887324 -0.14068925 0.14586428 0.24565946
-0.09812511 0.08176497 0.08428668 -0.024947658 -0.25790745 -0.106157765 0.0454228 0.04551936
0.051486492 -0.15904662 -0.31243277 0.1422168 -0.0036738515 -0.009640109 0.20885946 0.2175423
-0.15245496 0.010677242 -0.049794704 -0.013038625 -0.020085685 -0.08005759 -0.2646223 -0.029964326
0.045854557 0.012698974 -0.17880318 -0.09891418 -0.16947892 -0.27364975 -0.12340172 -0.17124236
-0.040297937 -0.052722994 -0.10992945 -0.16447935 -0.18565427 0.15268801 -0.050738025 -0.044904884
0.00048049277 -0.00925905 -0.14858948 -0.1451715 0.19602598 0.051843535 0.21300194 -0.0809496
-0.0051130527 0.031037746 -0.17329632 -0.09688379 -0.032058347 0.028480567 0.0752819 -0.12348157
0.046998117 -0.11839902 -0.18380453 -0.102418385 -0.00027965452 -0.014176949 -0.25603044 -0.053903773
-0.03315919 -0.071070395 -0.1280281 0.12114072 -0.16880119 -0.0995651 0.07580872 0.2503463
-0.22760402 -0.324222 -0.0036208453 -0.1594905 0.22037606 0.28674123 -0.2732531 -0.1261815
-0.037266035 0.066690676 0.10048518 -0.10426684 0.02361156 0.26236305 -0.08938265 -0.09902032
0.24341638 0.008141267 -0.12740745 0.13488062 -0.031778846 0.1709258 0.0153466035 0.15020002
0.114485316 0.1113787 0.047841456 0.0016826474 -0.033399686 -0.15377358 -0.10349463 -0.003932593
0.14821556 -0.11664404 -0.001412463 -0.14179628 0.15762626 -0.041997552 0.00056796835 0.04403957
0.12517056 0.08921075 0.15093821 -0.24042203 -0.07634311 0.2877547 0.033462588 -0.052531306
0.012494602 0.12290652 0.048893213 0.07459767 -0.0069428426 0.3352192 0.103672735 0.041032847
0.052245375 -0.08973756 0.08817608 -0.14534312 -0.16586953 -0.15339133 -0.08949545 -0.081558034
0.1261966 -0.20679972 0.21848047 0.071999416 -0.17131224 -0.10860366 0.12274314 -0.16385607
-0.0059042373 0.23414554 0.22420798 -0.22035307 0.11729381 -0.10728677 0.14566427 -0.012281921
0.14926143 -0.01966818 -0.04563246 -0.29090816 -0.2792737 0.0110208625 0.1364006 0.1586345
0.08218629 0.09507919 -0.07138887 -0.05369194 0.24591108 -0.1931911 0.1159752 0.16043837
-0.19171287 -0.07440324 0.0652006 -0.06793116 -0.08442296 0.10151273 0.18694426 -0.060368802
-0.11278696 -0.09746038 -0.08628109 -0.1684288 -0.12738173 0.14581384 -0.23401694 0.090783745
-0.14191075 -0.056190316 -0.26239726 0.0468983 -0.101704806 0.0020559137 0.10976872 0.0795445
-0.008913074 0.07715307 -0.08439603 0.115725376 -0.0280463 -0.17446338 -0.12801465 -0.16517022
-0.21781434 0.07591099 -0.10730494 -0.031574953 0.29241115 0.24588527 0.039837744 -0.099955015
0.109394856 -0.13260005 -0.15483835 0.076379 -0.032540448 -0.019083723 0.098253995 -0.17402609
-0.09367805 0.06376114 -0.19204043 -0.06327533 0.086721405 0.158573 0.106984064 -0.15628795
0.021984102 0.032905906 -0.08567168 0.16779333 -0.22632135 0.10769049 -0.07482093 0.009916374
0.08541931 -0.122181565 -0.1882794 0.15514506 0.06473383 -0.111649655 0.15334778 -0.08864019
-0.07536762 -0.033999037 -0.1379913 0.12789115 -0.043539725 0.25069448 0.09471711 -0.08217527
00000000: a64f 02be 306d 403d 8203 c63d aba1 743c
00000010: 8c2a 37be d810 10be 725d 153e 278e 7b3e
00000020: d1f5 c8bd 6574 a73d 7f9e ac3d 085f ccbc
00000030: 720c 84be 3e69 d9bd 420d 3a3d 8272 3a3d
00000040: 80e3 523d 1edd 22be 30f7 9fbe 48a1 113e
00000050: 00c5 70bb 8cf1 1dbc 41df 553e 69c3 5e3e
00000060: 271d 1cbe 99ef 2e3c 88f5 4bbd f59f 55bc
00000070: bc8a a4bc 3cf5 a3bd 937c 87be bf77 f5bc
00000080: fdd1 3b3d 5c0f 503c 2e18 37be 8593 cabd
00000090: e28b 2dbe d21b 8cbe 0aba fcbd 285a 2fbe
000000a0: 730f 25bd 11f4 57bd b122 e1bd 466d 28be
000000b0: 271c 3ebe 3f5a 1c3e add2 4fbd 2fee 37bd
000000c0: a6ea fb39 45b3 17bc d727 18be d6a7 14be
000000d0: 09bb 483e e359 543d 2e1d 5a3e e7c8 a5bd
000000e0: 658b a7bb df42 fe3c 9774 31be 026b c6bd
000000f0: 9d4f 03bd 1450 e93c 662d 9a3d e8e3 fcbd
00000100: 1981 403d 2f7b f2bd 4137 3cbe bbc0 d1bd
00000110: 989e 92b9 6f46 68bc 6c16 83be 34ca 5cbd
00000120: eed1 07bd 5b8d 91bd cc19 03be a018 f83d
00000130: 38da 2cbe cae8 cbbd 9a41 9b3d 642d 803e
00000140: 0711 69be 6d00 a6be b44b 6dbb 7a51 23be
00000150: 43aa 613e bfcf 923e d5e7 8bbe b935 01be
00000160: 45a4 18bd 1f95 883d 2dcb cd3d da89 d5bd
00000170: 086d c13c 7354 863e 400e b7bd 2acb cabd
00000180: 2542 793e f362 053c 1977 02be 251e 0a3e
00000190: 892a 02bd 2c07 2f3e 5270 7b3c 09ce 193e
000001a0: 4777 ea3d 841a e43d 67f5 433d 478c dc3a
000001b0: 1cce 08bd d276 1dbe fef4 d3bd fbdc 80bb
000001c0: d2c5 173e 12e3 eebd 6522 b9ba 0b33 11be
000001d0: c768 213e a005 2cbd b6e3 143a d662 343d
000001e0: b62c 003e 20b4 b63d 8c8f 1a3e 3131 76be
000001f0: c759 9cbd 9654 933e 1110 093d 112b 57bd
00000200: 29b6 4c3c 6ab6 fb3d 4044 483d aac6 983d
00000210: c980 e3bb daa1 ab3e 5f52 d43d 0f12 283d
00000220: 3fff 553d 53c8 b7bd a995 b43d d4d4 14be
00000230: b4d9 29be 9e12 1dbe 6449 b7bd e607 a7bd
00000240: ae39 013e 4ec3 53be 58b9 5f3e 6e74 933d
00000250: 7a6c 2fbe 986b debd c160 fb3d e3c9 27be
00000260: 5578 c1bb d9c3 6f3e c796 653e 3ca4 61be
00000270: bd37 f03d 2bb9 dbbd 0429 153e 1c3a 49bc
00000280: fdd7 183e 2a1f a1bc 1ae9 3abd eaf1 94be
00000290: f6fc 8ebe d990 343c 99ac 0b3e 1571 223e
000002a0: 4951 a83d e1b8 c23d 5434 92bd 14ec 5bbd
000002b0: 1dd0 7b3e e3d3 45be 6884 ed3d f549 243e
000002c0: 6150 44be ba60 98bd e487 853d 7e1f 8bbd
000002d0: f2e5 acbd e8e5 cf3d 516e 3f3e 4745 77bd
000002e0: dafc e6bd 4f99 c7bd 24b4 b0bd 9978 2cbe
000002f0: 5b70 02be 3950 153e 23a2 6fbe d4ec b93d
00000300: 0d51 11be d127 66bd ef58 86be 6f18 403d
00000310: 9c4a d0bd 82bc 063b 6cce e03d 3ae8 a23d
00000320: 2408 12bc 6e02 9e3d d3d7 acbd 6d01 ed3d
00000330: 5bc1 e5bc 87a6 32be 4616 03be 6222 29be
00000340: b90a 5fbe 3977 9b3d b1c2 dbbd bd54 01bd
00000350: eab6 953e 59c9 7b3e e72c 233d 37b5 ccbd
00000360: 690a e03d 4fc8 07be f28d 1ebe 986c 9c3d
00000370: 2249 05bd 7855 9cbc 6439 c93d e533 32be
00000380: 47da bfbd 3395 823d 3fa6 44be 7f96 81bd
00000390: fe9a b13d f660 223e 761a db3d f309 20be
000003a0: 0118 b43c 58c8 063d a274 afbd 04d2 2b3e
000003b0: c9c0 67be d58c dc3d b73b 99bd 4a78 223c
000003c0: 52f0 ae3d 543a fabd 51cc 40be 59de 1e3e
000003d0: 2c93 843d 93a8 e4bd 3307 1d3e fd88 b5bd
000003e0: 575a 9abd 9342 0bbd 974d 0dbe e6f5 023e
000003f0: b656 32bd 075b 803e 0bfb c13d 824b a8bd

cnn_a1_1.conv.bias f4 [32]
0.038441118 -0.03192706 -0.043435145 -0.043474603 -0.09697734 -0.0726053 -0.042708755 -0.061920702
-0.10297689 -0.035373874 -0.03635792 -0.011614974 0.0013854794 -0.11330649 -0.009875702 -0.011344033
-0.038929503 -0.031726487 -0.056602333 -0.006020091 0.032504223 -0.08916039 -0.028515514 0.041227426
-0.08485921 -0.08908232 -0.10678336 -0.013453738 0.052483648 -0.07251503 -0.04353584 0.025026867
00000000: 6f74 1d3d f3c5 02bd 0de9 31bd 6d12 32bd
00000010: 0e9c c6bd 16b2 94bd 60ef 2ebd 90a0 7dbd
00000020: 8ce5 d2bd 32e4 10bd 0bec 14bd bb4c 3ebc
00000030: f998 b53a 3c0d e8bd b2cd 21bc 53dc 39bc
00000040: 8b74 1fbd a2f3 01bd d9d7 67bd 2f44 c5bb
00000050: 2623 053d b999 b6bd 5e99 e9bc 17de 283d
00000060: aaca adbd cb70 b6bd 3cb1 dabd 116d 5cbc
00000070: 18f9 563d c382 94bd a352 32bd 2505 cd3c

cnn_a1_1.out_linear.weight f4 [64, 224]
0.00930231 0.018482672 -0.21313612 -0.060089834 -0.13188933 -0.04068401 -0.032947507 0.15270007
0.06960477 -0.121676475 -0.075957336 -0.11478706 -0.26951465 0.006780548 0.05982163 -0.13648607
-0.029075049 -0.01149574 -0.050778646 0.06017336 0.09017396 -0.018957963 -0.11999874 0.038652476
0.13025032 -0.15075575 -0.09343746 -0.02246683 -0.057972908 0.12760466 0.060734287 -0.20860742
0.064089924 0.04697127 -0.20497364 0.08477982 0.1634972 0.17758113 -0.12795487 -0.07443386
0.040536236 0.0006252846 -0.059256077 -0.02731798 -0.07615051 -0.19505413 -0.02802573 -0.10638264
-0.14680591 0.022931946 0.12337933 -0.067090556 -0.022537647 -0.23475614 0.01768693 -0.0042188535
-0.23469222 -0.1615791 0.088825226 0.081815794 -0.09567216 -0.20517647 -0.17435233 -0.07711134
-0.20396855 -0.1085392 -0.13028257 -0.09264337 0.14774679 -0.017493248 0.047897518 0.20274155
-0.0014437719 0.02409367 -0.021793628 0.08626514 -0.10605547 0.012859062 0.00021321775 -0.031723574
-0.058793657 0.011881545 0.048955318 -0.081756674 0.09052976 -0.13703671 0.14782527 0.052034806
0.037873447 -0.11106724 -0.004295608 -0.06511758 -0.03344359 0.019257793 0.11675719 -0.007342809
-0.13259935 -0.047864392 -0.09142904 -0.024241574 0.014678456 0.00814612 0.0402276 -0.011105475
0.07684346 0.20017268 -0.104238585 0.032844324 -0.0013952709 -0.14325915 -0.13940267 -0.25625598
0.038263127 -0.22560534 -0.15416884 -0.059088677 -0.09887962 -0.08329213 0.00046921783 -0.021152794
0.029965108 -0.006450344 -0.3034272 -0.1832323 0.06899967 -0.07291869 -0.07503676 -0.027048575
-0.05942647 0.17694333 0.034635827 -0.0012812837 -0.06277867 -0.08780539 -0.18568394 -0.10348452
-0.043333728 -0.030169602 -0.011497279 -0.077508934 -0.15785319 -0.134776 -0.14420752 -0.13436288
-0.063666776 -0.099175334 -0.20598277 0.06648258 -0.035803504 0.14064404 -0.10270006 -0.29344428
-0.20558512 0.01074713 -0.045326367 -0.1291812 -0.21475773 -0.033846255 0.072271675 -0.11151417
-0.24030732 -0.03287255 0.040008068 -0.040167216 -0.006434121 0.065553896 -0.041799385 -0.13635142
0.09849528 -0.07849244 0.0861093 -0.05996974 0.036726743 0.18694682 -0.084526606 -0.018290153
-0.25560617 0.032172315 -0.025773438 -0.17360649 -0.029469695 0.052050296 -0.12286071 0.017879399
0.026488535 -0.23078021 -0.12459594 -0.1836417 -0.20599642 -0.14359298 -0.08484002 -0.20076376
-0.020466764 0.08807318 -0.12484743 -0.14231306 0.05971009 -0.008609024 -0.12962177 -0.22027344
-0.21492094 -0.19113074 -0.13538907 0.034013677 -0.10006958 -0.08960236 -0.107998624 -0.017356602
-0.07395457 -0.25750095 -0.1618111 -0.019223496 -0.015496356 0.015568612 -0.084335364 -0.060645163
0.021976836 0.07382158 -0.09992643 0.058370475 0.0345617 -0.03222133 -0.0020927908 0.06351885
-0.0077424473 -0.11757314 -0.0016650456 -0.07246473 0.08534307 0.027148088 -0.02982146 0.0685837
-0.045428205 0.028713966 -0.0881918 0.0153695755 0.017571148 -0.26298985 -0.08467433 0.076992534
0.13043605 0.022531623 -0.1992817 -0.17180237 -0.034997977 0.014381502 -0.07638971 -0.22758187
-0.07898753 0.0070112143 0.045914564 0.002403716 0.17409933 0.07950927 0.03658726 -0.032808624
00000000: b768 183c f968 973c 5b40 5abe c220 76bd
00000010: ff0d 07be 47a4 26bd f7f3 06bd 685d 1c3e
00000020: f28c 8e3d 8431 f9bd 858f 9bbd 7a15 ebbd
00000030: d3fd 89be 5c2f de3b 8707 753d 01c3 0bbe
00000040: cc2e eebc a158 3cbc 45fd 4fbd 5778 763d
00000050: 20ad b83d bb4d 9bbc e6c1 f5bd 0f52 1e3d
00000060: 5760 053e b75f 1abe 245c bfbd 5c0c b8bc
00000070: 0075 6dbd ccaa 023e 84c4 783d 2f9d 55be
00000080: 9441 833d f264 403d 9ce4 51be 0ba1 ad3d
00000090: cf6b 273e d4d7 353e 9a06 03be c870 98bd
000000a0: 5309 263d 24ea 233a 80b6 72bd f5c9 dfbc
000000b0: ccf4 9bbd 45bc 47be 3796 e5bc 24df d9bd
000000c0: 4a54 16be c7db bb3c 4dae fc3d c666 89bd
000000d0: dfa0 b8bc ea63 70be 2ee4 903c 4f3e 8abb
000000e0: 2853 70be fe74 25be 00ea b53d 0a8f a73d
000000f0: c4ef c3bd c819 52be 6b89 32be 8dec 9dbd
00000100: 22dd 50be cd49 debd cb68 05be cfbb bdbd
00000110: ef4a 173e 004e 8fbc 3030 443d 7b9b 4f3e
00000120: f23c bdba 1760 c53c 8d88 b2bc c7ab b03d
00000130: 9c33 d9bd d1ae 523c 3493 5f39 94f0 01bd
00000140: 9ed1 70bd d0aa 423c 5f85 483d 0b70 a7bd
00000150: ab67 b93d 5a53 0cbe 825f 173e 7322 553d
00000160: 3021 1b3d 3977 e3bd 2cc2 8cbb 5e5c 85bd
00000170: 25fc 08bd 85c2 9d3c 651e ef3d f29b f0bb
00000180: 20c8 07be 740d 44bd 263f bbbd 4496 c6bc
00000190: e87d 703c 4e77 053c b2c5 243d bdf3 35bc
000001a0: 1b60 9d3d 11fa 4c3e 0a7b d5bd c587 063d
000001b0: 86e1 b6ba 87b2 12be 93bf 0ebe fc33 83be
000001c0: ccb9 1c3d 1605 67be 70de 1dbe f806 72bd
000001d0: 6681 cabd 1095 aabd 5a01 f639 a048 adbc
000001e0: 6379 f53c 685d d3bb cf5a 9bbe 40a1 3bbe
000001f0: b34f 8d3d 6556 95bd dfac 99bd f994 ddbc
00000200: 2c69 73bd a230 353e 4cde 0d3d bff0 a7ba
00000210: 1a92 80bd 50d3 b3bd ee23 3ebe b1ef d3bd
00000220: b57e 31bd 3e26 f7bc 155f 3cbc 01bd 9ebd
00000230: 44a4 21be b802 0abe 23ab 13be 6c96 09be
00000240: ba63 82bd 701c cbbd 26ed 52be 0528 883d
00000250: b2a6 12bd fe04 103e 6954 d2bd 543e 96be
00000260: e884 52be bb14 303c 24a8 39bd 1448 04be
00000270: 73e9 5bbe 5fa2 0abd 2c03 943d 8b61 e4bd
00000280: 1f13 76be 5ea5 06bd 80df 233d 6186 24bd
00000290: 52d5 d2bb 1f41 863d d535 2bbd b59f 0bbe
000002a0: e5b7 c93d a5c0 a0bd 135a b03d d5a2 75bd
000002b0: c86e 163d fd6e 3f3e 491c adbd 3bd5 95bc
000002c0: d0de 82be 1ec7 033d d122 d3bc e6c5 31be
000002d0: 6e6a f1bc b132 553d 659e fbbd d177 923c
000002e0: 7cfe d83c a651 6cbe 282c ffbd 920c 3cbe
000002f0: baf0 52be 0a0a 13be 9bc0 adbd 0495 4dbe
00000300: eaa9 a7bc b65f b43d 02b0 ffbd 84ba 11be
00000310: 9192 743d dd0c 0dbc 92bb 04be 5c8f 61be
00000320: 3c14 5cbe c7b7 43be 6fa3 0abe ed51 0b3d
00000330: 48f1 ccbd 7181 b7bd 622e ddbd 6f2f 8ebc
00000340: 7e75 97bd 2ad7 83be cfb1 25be 987a 9dbc
00000350: 6ee4 7dbc 7e13 7f3c 05b8 acbd 1067 78bd
00000360: c408 b43c c52f 973d 3aa6 ccbd e115 6f3d
00000370: 9290 0d3d 83fa 03bd 3427 09bb 2c16 823d
00000380: 5bb4 fdbb 30ca f0bd a93d daba 6368 94bd
00000390: 59c8 ae3d ab65 de3c 224c f4bc 9c75 8c3d
000003a0: ed12 3abd 8d39 eb3c e79d b4bd acd0 7b3c
000003b0: 5ef1 8f3c 9ba6 86be bc69 adbd 43ae 9d3d
000003c0: 0791 053e 3d94 b83c 8110 4cbe f6ec 2fbe
000003d0: 0a5a 0fbd 64a0 6b3c 3572 9cbd 390b 69be
000003e0: 37c4 a1bd 54be e53b e910 3c3d aa87 1d3b
000003f0: 1847 323e c2d5 a23d 86dc 153d 5662 06bd

cnn_a1_1.out_linear.bias f4 [64]
-0.06263976 0.019820567 -0.0893323 -0.053584073 -0.07384144 -0.09082439 -0.09963405 -0.05646469
-0.20404364 0.048471753 0.03289516 -0.13275737 -0.20118155 -0.15470552 -0.031329956 -0.13445611
-0.0448263 -0.12593313 -0.17899942 -0.065950885 -0.05986178 -0.014267002 -0.15184174 0.0171966
-0.06360988 -0.1171691 0.001723111 -0.08957389 -0.02283466 -0.18859823 -0.13853502 -0.12867677
-0.091962814 -0.047512207 0.059744813 0.068399556 -0.093257084 -0.14826654 -0.062567726 -0.15092508
-0.12189013 -0.12694418 -0.012752253 -0.13687955 -0.10040498 -0.0436081 -0.091693036 -0.09727659
-0.17961666 0.07929685 -0.14620067 -0.021752317 -0.20098576 -0.0058570122 0.050528884 -0.1838083
-0.18070619 0.0062347795 -0.068515785 -0.06463471 -0.19480307 -0.13725653 -0.06550708 -0.09836997
00000000: 4649 80bd be5e a23c daf3 b6bd f97a 5bbd
00000010: 2e3a 97bd 2302 babd f00c ccbd 8547 67bd
00000020: d1f0 50be 518a 463d 13bd 063d 8cf1 07be
00000030: 8902 4ebe 206b 1ebe d753 00bd ddae 09be
00000040: c89b 37bd 9df4 00be a04b 37be 4211 87bd
00000050: a031 75bd 25c0 69bc 677c 1bbe e2df 8c3c
00000060: e645 82bd 5af6 efbd 03da e13a 8472 b7bd
00000070: c10f bbbc e51f 41be 20dc 0dbe d8c3 03be
00000080: 0057 bcbd 299c 42bd fab6 743d 1115 8c3d
00000090: 92fd bebd 2fd3 17be 8223 80bd 1b8c 1abe
000000a0: 88a1 f9bd a8fd 01be d3ee 50bc 272a 0cbe
000000b0: 20a1 cdbd 689e 32bd 8fc9 bbbd f338 c7bd
000000c0: 6eed 37be 6366 a23d a1b5 15be ea31 b2bc
000000d0: 36cf 4dbe 2eec bfbb 60f7 4e3d 3e38 3cbe
000000e0: 0b0b 39be 1f4d cc3b 0152 8cbd 345f 84bd
000000f0: 757a 47be fa8c 0cbe 9328 86bd 3276 c9bd

cnn_a2_1.conv.weight f4 [32, 21, 2]
0.10926887 -0.14650378 0.0065654945 0.10046689 -0.15078942 0.16153492 -0.023986971 -0.11798063
0.2712348 -0.22223483 0.16017456 0.25876006 0.06538097 -0.22348678 0.12286469 -0.079687186
0.13583796 -0.21282552 -0.024278574 0.24511103 0.1636953 0.19275576 -0.006851803 0.20221688
0.049009748 -0.05174189 0.057694394 -0.012434345 -0.026503852 0.07786194 0.13568349 0.08336199
0.1321452 -0.13467532 0.2872627 -0.21095666 -0.26544192 0.102199316 0.04634692 0.035453744
0.24415985 -0.27407843 0.17723207 -0.0025147535 -0.16227128 0.036090247 -0.16058268 0.036533292
-0.18318418 -0.1666649 -0.15674224 -0.25071493 0.09648349 0.15448897 -0.04142363 -0.12480956
0.033335786 0.104703344 -0.3473796 -0.04998423 0.05424808 -0.09438194 0.0738195 0.14105622
0.0697118 0.048745014 -0.22100055 -0.13619447 -0.17536551 -0.03715893 0.09011639 0.16667719
-0.25147137 -0.06446529 0.11601791 0.14372489 -0.13173173 -0.0815337 -0.048926868 0.014771347
0.07861597 0.100561626 -0.19447297 -0.1308747 -0.059301242 0.033320464 0.08333107 0.045158766
0.14936964 -0.06517536 -0.1236067 0.1529961 0.09382815 -0.08734501 0.062020723 -0.1259865
0.0076786354 -0.3837715 0.025931366 -0.035808068 0.32388932 -0.022495601 -0.2203945 0.111721404
0.09274744 0.093143076 -0.13165225 -0.043323822 -0.15082005 -0.115012705 0.09742223 0.09549987
0.23723534 0.28996456 0.028515056 0.017476756 -0.09054239 -0.12885883 -0.11906081 0.11039586
0.031271152 0.08435073 0.048917603 0.12755485 -0.018722476 -0.037715778 0.12741084 -0.21599834
0.003072737 0.020017957 -0.2174835 -0.0437526 -0.03359174 0.033931684 -0.05624039 0.14845139
-0.0021467956 0.03848872 0.016497461 -0.041672647 0.029749306 -0.15080597 -0.30212379 -0.07328435
0.010084007 -0.20559797 0.02519395 -0.033152055 0.16944274 0.030233873 0.13982059 0.37715262
-0.080541365 -0.13507377 -0.29278567 -0.25417322 -0.024634955 -0.0661932 0.23668268 0.21722072
-0.0116027845 0.19071853 0.013505095 -0.03797243 -0.3395572 0.13184953 -0.22379503 0.05211284
-0.074062586 -0.099322245 -0.13078731 -0.25305435 0.035342954 0.0050847717 0.02565342 -0.21987379
0.08145564 0.027218621 0.044590894 -0.025933288 -0.005072881 0.05568631 0.040724065 -0.1786987
0.37252015 -0.24674448 0.008372963 0.13663295 0.02964214 8.829868e-05 -0.028811716 -0.017707553
-0.062355846 -0.11928149 -0.14784986 0.06590314 0.2765585 0.400288 0.004430359 0.03307835
-0.18404752 0.10591012 0.19962873 0.0032517272 -0.06665632 0.1566798 0.024454052 -0.15642111
0.17783034 -0.23820803 0.17549114 0.028015472 0.16716945 0.14238046 -0.035724822 -0.11589529
-0.005226549 -0.07878839 -0.3495996 0.16349389 0.086556 -0.010665779 -0.09911588 -0.124746576
-0.011519102 -0.21997583 0.0013694611 -0.006760692 0.055575296 0.22588888 0.20155214 0.16941819
0.27858177 0.26263928 0.11683515 0.10684986 -0.06024956 0.022414664 -0.15617613 -0.19775906
-0.040585965 0.10403301 -0.029803472 0.13649186 -0.3341391 0.21355852 -0.4543379 0.04875083
0.18184106 -0.25804216 -0.1639598 0.13810697 0.27742946 0.045983814 -0.17330302 0.008264182
00000000: 5bc8 df3d 1605 16be 5c23 d73b 96c1 cd3d
00000010: 8b68 1abe 6969 253e 5380 c4bc d49f f1bd
00000020: 4adf 8a3e 8791 63be cd04 243e 337c 843e
00000030: 75e6 853d b8d9 64be 7ca0 fb3d 0933 a3bd
00000040: 1b19 0b3e efee 59be dce3 c6bc 63fe 7a3e
00000050: be9f 273e c461 453e 1785 e0bb f111 4f3e
00000060: 72be 483d 4eef 53bd f550 6c3d 6cb9 4bbc
00000070: 9b1e d9bc 1576 9f3d 9df0 0a3e b1b9 aa3d
00000080: 1251 073e 54e8 09be 1914 933e 0605 58be
00000090: 01e8 87be e04d d13d 45d6 3d3d f237 113d
000000a0: 0a05 7a3e 0254 8cbe 537c 353e 90ce 24bb
000000b0: 712a 26be 5ed3 133d c96f 24be efa3 153d
000000c0: a294 3bbe 34aa 2abe 0a81 20be b55d 80be
000000d0: 2399 c53d 5b32 1e3e d3ab 29bd 289c ffbd
000000e0: 1b8b 083d b56e d63d bddb b1be 44bc 4cbd
000000f0: 3c33 5e3d 524b c1bd ae2e 973d 0b71 103e
00000100: 0fc5 8e3d daa8 473d f84d 62be 9076 0bbe
00000110: 0493 33be f633 18bd f18e b83d 6dad 2a3e
00000120: dbc0 80be 6106 84bd cc9a ed3d 9e2c 133e
00000130: afe4 06be 24fb a6bd 8a67 48bd 8503 723c
00000140: 6901 a13d 41f3 cd3d ec23 47be 0404 06be
00000150: dce5 72bd 0a7b 083d 7ba9 aa3d 66f8 383d
00000160: 5bf4 183e a97a 85bd 8225 fdbd 02ab 1c3e
00000170: f928 c03d f1e1 b2bd 7109 7e3d 9b02 01be
00000180: 109d fb3b b37d c4be 046e d43c 7bab 12bd
00000190: d2d4 a53e b248 b8bc 19af 61be 31ce e43d
000001a0: 5ff2 bd3d ccc1 be3d d9cf 06be 5274 31bd
000001b0: 9270 1abe c88b ebbd 4e85 c73d 7095 c33d
000001c0: d2ed 723e 3c76 943e 6898 e93c 6a2b 8f3c
000001d0: 4a6e b9bd 92f3 03be 27d6 f3bd 3a17 e23d
000001e0: 2e16 003d 13c0 ac3d d35d 483d bd9d 023e
000001f0: e15f 99bc dc7b 1abd fd77 023e ab2e 5dbe
00000200: f95f 493b b3fc a33c ffb3 5ebe ed35 33bd
00000210: 7e97 09bd f3fb 0a3d 535c 66bd a403 183e
00000220: 41b1 0cbb 59a6 1d3d af25 873c f0b0 2abd
00000230: d1b4 f33c e16c 1abe f8af 9abe 1b16 96bd
00000240: 6437 253c 4688 52be 8b63 ce3c 73ca 07bd
00000250: 6682 2d3e 07ad f73c 212d 0f3e 261a c13e
00000260: dff2 a4bd c750 0abe 01e8 95be fe22 82be
00000270: 3fcf c9bc 4d90 87bd f25c 723e 1c6f 5e3e
00000280: 9b19 3ebc b84b 433e 7944 5d3c fb88 1bbd
00000290: 71da adbe 9003 073e 862a 65be 4674 553d
000002a0: 20ae 97bd 7669 cbbd 1ced 05be 5790 81be
000002b0: c6c3 103d 289e a63b 1f27 d23c 9826 61be
000002c0: 37d2 a63d 96f9 de3c f1a4 363d 0c72 d4bc
000002d0: 693a a6bb 5417 643d 47ce 263d cbfc 36be
000002e0: f6ba be3e 96aa 7cbe c12e 093c 82e9 0b3e
000002f0: 13d4 f23c fe2c b938 8c06 ecbc 6e0f 91bc
00000300: d868 7fbd db49 f4bd f465 17be 3af8 863d
00000310: 1399 8d3e 8cf2 cc3e 8c2c 913b 2a7d 073d
00000320: f476 3cbe 68e7 d83d 796b 4c3e ee1a 553b
00000330: 1c83 88bd ab70 203e dd53 c83c db2c 20be
00000340: 2819 363e ceec 73be f3b3 333e b480 e53c
00000350: 782e 2b3e 2fcc 113e 3154 12bd 835a edbd
00000360: 7943 abbb cf5b a1bd b8fe b2be f16a 273e
00000370: 4644 b13d 85bf 2ebc 44fd cabd 227b ffbd
00000380: 9eba 3cbc 5841 61be 7d7f b33a cc88 ddbb
00000390: eca2 633d 6a4f 673e af63 4e3e f67b 2d3e
000003a0: 45a2 8e3e a878 863e 4447 ef3d 19d4 da3d
000003b0: 3ec8 76bd f59e b73c a3ec 1fbe 5a81 4abe
000003c0: 783d 26bd 420f d53d 6926 f4bc 86c4 0b3e
000003d0: 4814 abbe 16af 5a3e fa9e e8be f3ae 473d
000003e0: 8b34 3a3e 1a1e 84be 14e5 27be ea6b 0d3e
000003f0: 3c0b 8e3e 8659 3c3d 5976 31be 7e66 073c

cnn_a2_1.conv.bias f4 [32]
-0.08794829 -0.005631599 -0.04540439 -0.036788844 -0.069975205 0.004730911 -0.10851933 -0.038116347
-0.04792856 -0.030901184 -0.0672336 -0.09110087 -0.00020517512 -0.013903809 0.028875474 -0.07247942
0.03985288 -0.09704294 -0.05412898 -0.11861825 0.018266851 -0.0023863597 0.022302872 -0.054154553
-0.03474001 -0.089953564 -0.08258249 -0.06683564 -0.025210032 0.080345854 -0.05166561 -0.05658926
00000000: 3c1e b4bd 4789 b8bb f4f9 39bd e6af 16bd
00000010: 294f 8fbd c205 9b3b 623f debd e31f 1cbd
00000020: bd50 44bd 7b24 fdbc c5b1 89bd 1893 babd
00000030: 4724 57b9 cdcc 63bc 428c ec3c 1770 94bd
00000040: c63c 233d 73be c6bd 59b6 5dbd 20ee f2bd
00000050: 5da4 953c 7964 1cbb 83b4 b63c 2ad1 5dbd
00000060: 8a4b 0ebd 9339 b8bd 0221 a9bd 20e1 88bd
00000070: 4585 cebc 5e8c a43d 529f 53bd 24ca 67bd

cnn_a2_1.out_linear.weight f4 [64, 256]
0.15259163 -0.1815665 -0.24155551 0.039141417 -0.005034251 -0.022096176 0.03233851 0.024982756
0.11034922 -0.057689402 0.0014807731 0.27369562 0.23540848 0.085781865 -0.16882484 -0.42042175
-0.0505931 0.0334467 0.00359397 -0.020513065 -0.14422001 -0.22344396 -0.06017398 -0.058447476
-0.068782434 -0.16913064 0.05214469 0.19953169 0.13072734 0.09606656 -0.1674204 -0.086974934
0.11038752 0.06584541 -0.0629762 0.0997746 -0.0011041327 0.13102385 0.013951524 -0.043509338
-0.03561778 -0.22665901 -0.10121198 0.104227036 0.10068896 -0.08629233 -0.32534474 -0.26850292
-0.09738862 0.009840768 0.31118426 0.02190991 0.132778 -0.111967586 -0.0008565479 0.05323791
-0.024265178 -0.1308687 0.108593084 0.03669941 0.005758679 0.23489413 0.20741816 -0.0872643
-0.054917764 0.11360323 0.11707131 0.09381401 0.16326246 -0.26986548 -0.05046096 0.021915596
-0.265134 0.01456645 0.18800363 -0.06929227 -0.21518189 -0.32440135 -0.19199684 0.065136045
0.09753109 0.24757698 0.042550012 -0.32410362 0.039165 -0.16402782 0.05814633 0.16716656
-0.103817135 0.02371303 0.24981767 0.07471614 -0.008070795 -0.098327294 -0.011552794 -0.1203568
0.13299139 -0.07061141 0.086781874 -0.038879264 -0.12752423 -0.009696007 -0.010097009 0.0020839619
0.049734265 0.10957368 -0.100688644 -0.1416459 -0.20620215 -0.13578098 -0.040021803 -0.04626661
0.033395898 0.07011193 0.025103446 -0.023178207 -0.16592279 -0.31761912 -0.26248854 -0.07086837
-0.032245204 -0.14620048 -0.118110225 0.003202223 -0.013957706 -0.06963157 0.0011053686 0.058461647
-0.22588901 -0.11878266 0.109364614 0.16129917 0.052283708 -0.27040762 -0.20034291 -0.14161018
0.08642644 0.047098808 -0.045798562 0.079449505 0.17406432 0.036543246 -0.14091377 0.034457702
0.06785003 -0.05849344 -0.2634753 -0.1713168 -0.2470766 -0.036826424 -0.0028082272 0.089324035
0.0479946 0.039345775 0.078528024 0.132047 0.015441726 -0.012714001 0.11375411 0.08813457
-0.03226436 0.03451876 -0.108626574 0.14196326 0.12583394 0.19171269 0.18440251 -0.008952575
-0.07599542 -0.22960888 -0.11678162 0.0028530152 0.024524841 -0.019979855 -0.38625547 -0.15437599
0.14834447 0.013629634 0.13686818 0.102699116 -0.029901989 0.018116804 0.022247655 0.059047323
0.18313773 0.10035583 0.26281515 0.099828035 -0.13147813 0.067410335 0.08057351 0.06629772
0.051165216 0.1681691 0.090072 0.072538726 0.19301698 -0.13360883 -0.13242778 0.102982685
0.2695108 0.24531968 0.005238801 0.012746452 0.05599779 0.11814791 -0.03710522 -0.27571198
-0.119757235 0.08162441 -0.09294122 0.035000436 0.14203139 -0.16115157 0.01571782 0.028164068
0.07079856 0.09058198 -0.07101867 -0.1173143 -0.2531585 -0.18635678 -0.09856503 -0.041625388
0.028183173 0.062384386 -0.123345174 -0.05122615 -0.04864729 0.09840444 -0.15179642 -0.042792685
0.09413375 0.12879933 -0.020778712 -0.23109853 -0.06556313 0.040159367 0.026028527 0.103596784
0.036005024 0.101682186 0.1392494 -0.15938881 -0.3301131 -0.22608255 -0.032943767 0.078503735
-0.18625954 -0.3759176 -0.1581324 -0.06882025 0.011487095 0.00961731 -0.03456232 0.012709935
00000000: fb40 1c3e 92ec 39be 545a 77be c052 203d
00000010: 5cf6 a4bb 0a03 b5bc 6375 043d a3a8 cc3c
00000020: c6fe e13d b94b 6cbd 8016 c23a d521 8c3e
00000030: ec0e 713e 67ae af3d 6be0 2cbe 8541 d7be
00000040: b63a 4fbd 68ff 083d d088 6b3b 040b a8bc
00000050: 69ae 13be 7ece 64be fe78 76bd 9f66 6fbd
00000060: cedd 8cbd 9530 2dbe ac95 553d 0952 4c3e
00000070: 63dd 053e 8bbe c43d 4170 2bbe ea1f b2bd
00000080: da12 e23d f5d9 863d aaf9 80bd a056 cc3d
00000090: 8cb8 90ba 1e2b 063e ef94 643c d936 32bd
000000a0: f3e3 11bd 4d19 68be 3a48 cfbd fc74 d53d
000000b0: 0336 ce3d 08ba b0bd 9693 a6be 3779 89be
000000c0: af73 c7bd 2c3b 213c 8b53 9f3e 697c b33c
000000d0: f5f6 073e 434f e5bd f589 60ba ff0f 5a3d
000000e0: c4c7 c6bc 7202 06be 0d66 de3d 1f52 163d
000000f0: 4db3 bc3b 1688 703e 6d65 543e a0b7 b2bd
00000100: 73f1 60bd cfa8 e83d 15c3 ef3d 8f21 c03d
00000110: 462e 273e cf2b 8abe 27b0 4ebd 5688 b33c
00000120: a5bf 87be 1fa8 6e3c 0684 403e 1be9 8dbd
00000130: a458 5cbe ef17 a6be d29a 44be 0c66 853d
00000140: 61be c73d d284 7d3e ec48 2e3d e9f0 a5be
00000150: 7b6b 203d e9f6 27be d92a 6e3d b62d 2b3e
00000160: 149e d4bd d441 c23c 34d0 7f3e c704 993d
00000170: 5e3b 04bc d25f c9bd ee47 3dbc a07d f6bd
00000180: e52e 083e b79c 90bd b2ba b13d dd3f 1fbd
00000190: b695 02be 00dc 1ebc ed6d 25bc 1493 083b
000001a0: 28b6 4b3d 2a68 e03d d935 cebd 9f0b 11be
000001b0: a826 53be 2b0a 0bbe e7ed 23bd 0f82 3dbd
000001c0: 23ca 083d d896 8f3d bea5 cd3c 39e0 bdbc
000001d0: aae7 29be f99e a2be e664 86be 7023 91bd
000001e0: 8c13 04bd 94b5 15be c6e3 f1bd 63dc 513b
000001f0: ddae 64bc ff9a 8ebd 04e2 903a 7b75 6f3d
00000200: 734f 67be 5344 f3bd 8efa df3d 9c2b 253e
00000210: 7127 563d de72 8abe b126 4dbe 4202 11be
00000220: 5800 b13d aeea 403d 4697 3bbd 6cb6 a23d
00000230: eb3d 323e 5fae 153d b34b 10be 8523 0d3d
00000240: f5f4 8a3d d196 6fbd 3ce6 86be ac6d 2fbe
00000250: a601 7dbe 4ed7 16bd 3c0a 38bb 85ef b63d
00000260: fc95 443d 0929 213d 4dd3 a03d 5437 073e
00000270: 4bff 7c3c 634e 50bc eaf7 e83d e67f b43d
00000280: a227 04bd 8b63 0d3d 9c77 debd d15e 113e
00000290: 9dda 003e 5550 443e 03d4 3c3e d2ad 12bc
000002a0: 7da3 9bbd 971e 6bbe 342b efbd a7f9 3a3b
000002b0: 52e8 c83c cbac a3bc 47c3 c5be bd14 1ebe
000002c0: 9de7 173e d44e 5f3c 2c27 0c3e ea53 d23d
000002d0: 04f5 f4bc b169 943c b740 b63c 9bdb 713d
000002e0: 7588 3b3e 5b87 cd3d b58f 863e a472 cc3d
000002f0: 34a2 06be 6e0e 8a3d b903 a53d 19c7 873d
00000300: 9e92 513d 8534 2c3e ab77 b83d 2f8f 943d
00000310: 3ea6 453e c1d0 08be 269b 07be 96e8 d23d
00000320: 52fd 893e 1535 7b3e 3faa ab3b 7fd6 503c
00000330: f05d 653d 88f7 f13d a5fb 17bd 1f2a 8dbe
00000340: 4843 f5bd b32a a73d f757 bebd 9e5c 0f3d
00000350: ad70 113e eb04 25be a8c2 803c 55b8 e63c
00000360: d6fe 903d 0c83 b93d 3d72 91bd 7b42 f0bd
00000370: fe9d 81be 50d4 3ebe 76dc c9bd 627f 2abd
00000380: 66e0 e63c c586 7f3d 659c fcbd 83d2 51bd
00000390: 6142 47bd 4488 c93d 8570 1bbe 6247 2fbd
000003a0: 32c9 c03d f9e3 033e 1e38 aabc 18a5 6cbe
000003b0: f645 86bd 267e 243d c739 d53c 8d2a d43d
000003c0: 017a 133d c03e d03d 6597 0e3e d236 23be
000003d0: 9604 a9be 2f82 67be 0bf0 06bd 91c6 a03d
000003e0: d2ba 3ebe 4678 c0be 76ed 21be a2f1 8cbd
000003f0: 5e34 3c3c ec91 1d3c 3891 0dbd 553d 503c

cnn_a2_1.out_linear.bias f4 [64]
0.074217826 -0.034791462 -0.14834134 -0.13441661 -0.034770425 0.0721754 -0.11703969 0.0008615564
-0.13364126 -0.06421632 -0.20451325 -0.121733904 -0.16081713 -0.0700452 -0.29140672 -0.105205506
0.01482074 -0.19210845 -0.19480023 -0.06769763 -0.05758612 0.022302138 -0.08749761 -0.22292289
-0.046376258 -0.16427709 0.004480543 -0.11218315 -0.10677942 -0.20448901 0.0377178 -0.09630823
-0.032325156 -0.11553299 -0.25778228 -0.13303673 0.14042246 0.22238141 -0.072502404 -0.14351259
0.0707817 -0.08758788 -0.07325009 -0.16104768 -0.23480095 -0.037506085 -0.04541335 -0.15715104
-0.0047149905 0.008570975 -0.15835324 -0.03490345 0.08425707 0.11275189 -0.07066464 -0.06631035
-0.08006154 -0.21817805 -0.16972668 -0.070217654 -0.137867 -0.11805515 -0.080071755 -0.075467624
00000000: 84ff 973d 7e81 0ebd cbe6 17be 82a4 09be
00000010: 6f6b 0ebd b2d0 933d 81b2 efbd 12da 613a
00000020: 41d9 08be d983 83bd ec6b 51be a04f f9bd
00000030: 3fad 24be dc73 8fbd 4333 95be fc75 d7bd
00000040: b0d2 723c 14b8 44be b679 47be 0ea5 8abd
00000050: 6cdf 6bbd f9b2 b63c f231 b3bd e645 64be
00000060: 08f5 3dbd 4138 28be 85d1 923b 48c0 e5bd
00000070: 2baf dabd 9165 51be fb7d 1a3d 403d c5bd
00000080: 6267 04bd 8f9c ecbd 0afc 83be c83a 08be
00000090: e8ca 0f3e f4b7 633e 247c 94bd f7f4 12be
000000a0: fff5 903d 4661 b3bd 2504 96bd afe9 24be
000000b0: a96f 70be fb9f 19bd 5903 3abd 34ec 20be
000000c0: 3580 9abb 466d 0c3c 5a27 22be ecf6 0ebd
000000d0: f98e ac3d 77ea e63d 9fb8 90bd b9cd 87bd
000000e0: 4ef7 a3bd 116a 5fbe d5cc 2dbe 46ce 8fbd
000000f0: 022d 0dbe e6c6 f1bd a9fc a3bd c58e 9abd
