example_run/save_dir/cnn/model.pt (torch, 953727 bytes, 33 tensors)

cnn_pep_1.conv.weight f4 [32, 21, 2]
0.18181449 -0.2583011 -0.06420495 -0.04202634 -0.18326785 -0.09985427 0.05968641 0.12003178
-0.27974343 0.14824143 -0.12785417 -0.13687861 0.0032344444 -0.086334445 -0.35275477 0.08358519
0.12089679 0.18740468 -0.06884338 -0.21860032 0.058193427 0.040117558 -0.11500468 0.11872803
-0.2614618 -0.08190441 0.010216629 -0.020393444 -0.014468718 0.0849971 -0.13274385 -0.07402565
0.009280979 0.045330875 0.06767704 -0.40135196 0.15005897 0.27500534 0.26920584 0.27382737
-0.19478106 -0.35543373 -0.017048767 -0.04772111 0.0644778 -0.10678398 -0.042177558 0.28079247
0.11277471 -0.08849752 0.26831177 0.4915744 -0.10328191 0.023150112 -0.027371066 0.135243
-0.130221 -0.24330513 -0.17386289 -0.07010839 0.0044697057 0.17244786 -0.05965388 0.049072254
0.16161862 -0.03508672 -0.120555416 -0.046596527 0.22557327 0.07791104 -0.12546283 -0.16052027
0.060723037 0.14561237 0.2780368 0.20315206 0.017548194 -0.05182011 -0.09892687 -0.08592837
-0.31956074 0.0711035 0.13736027 0.004419514 0.12896778 0.087604515 -0.20570756 -0.07435462
0.005658782 -0.09910782 0.014368349 -0.13034332 0.42732367 0.55624545 0.15472963 0.04025542
-0.0016509104 0.2875456 -0.1768373 -0.12971225 0.12204216 -0.1042143 -0.1753377 -0.026662089
-0.22661798 -0.104369596 -0.25680408 0.064717606 -0.22766069 0.06942212 -0.2566486 0.0026760763
-0.29966578 0.13317205 0.112603754 -0.1453329 -0.014615158 -0.008422567 0.22983469 0.028326012
-0.05228537 -0.10769533 -0.093133345 0.038892712 -0.3610717 -0.119629264 -0.07513843 -0.018871097
-0.030836252 -0.19409926 -0.22394726 -0.017138708 -0.16630863 -0.15947501 0.034196403 -0.06743969
-0.02315256 0.056163613 0.06854514 0.0655025 0.089499444 0.16382341 0.2935422 0.007878058
-0.23214915 -0.19339342 0.16381922 0.19560914 -0.21020508 -0.21457899 -0.12141565 -0.24672686
0.06400366 0.26675943 -0.096351355 -0.18123657 0.09469048 -0.18366723 0.019386025 0.010038857
-0.14715111 0.09420946 -0.059345096 -0.1805493 0.09221843 -0.048771434 -0.07532301 0.06211698
0.02941544 0.009375734 0.16470096 0.051778514 0.30697197 0.23984404 -0.26799014 0.06680425
-0.0364131 -0.2719956 0.22044241 -0.13720575 0.029790876 -0.13004945 -0.0430404 -0.03244997
0.32235515 0.19745247 -0.24170364 -0.18296936 -0.3375566 0.11422958 0.049160708 0.046366457
-0.23147851 -0.010133215 -0.15640046 -0.12732981 -0.15723328 -0.051396605 0.017751005 -0.14546356
0.16052116 0.19260243 -0.28329077 -0.3516285 0.130073 0.17540617 -0.15391675 0.18969937
-0.031144438 -0.078204796 -0.1028123 -0.058959108 0.20658669 -0.09194964 0.0058161607 -0.15789977
-0.05381313 0.018983306 -0.102253705 -0.12180244 -0.27046257 0.17682569 -0.07958989 0.039936982
0.096834175 0.17332311 -0.25961182 -0.056380056 0.022672666 0.04206395 0.08871894 0.19665912
-0.05862371 0.039279327 0.20972401 -0.27269673 -0.09351693 -0.16842523 0.0028426743 -0.15883233
0.04074946 0.06826791 -0.39821476 -0.0560261 -0.06673033 0.043816317 -0.19114165 -0.06880698
-0.09277441 -0.08999604 -0.3114519 0.09108931 0.27933732 0.21699685 -0.022523273 0.0694037
00000000: 942d 3a3e 0b40 84be e37d 83bd d023 2cbd
00000010: 91aa 3bbe 6580 ccbd bd79 743d 39d3 f53d
00000020: 883a 8fbe 9acc 173e 34ec 02be e829 0cbe
00000030: f9f8 533b 1dd0 b0bd 469c b4be b62e ab3d
00000040: bc98 f73d 03e7 3f3e c2fd 8cbd c3d8 5fbe
00000050: 3b5c 6e3d 4f52 243d 9387 ebbd ae27 f33d
00000060: 52de 85be 80bd a7bd a663 273c 2710 a7bc
00000070: 340e 6dbc f612 ae3d 01ee 07be c39a 97bd
00000080: 3f0f 183c deac 393d 439a 8a3d 017e cdbe
00000090: 0fa9 193e 80cd 8c3e 59d5 893e 1a33 8c3e
000000a0: b074 47be 69fb b5be dba9 8bbc 3677 43bd
000000b0: f00c 843d 8fb1 dabd 60c2 2cbd 08c4 8f3e
000000c0: 6df6 e63d 303e b5bd 2960 893e a4af fb3e
000000d0: 7785 d3bd 4ea5 bd3c 4939 e0bc 247d 0a3e
000000e0: a758 05be fb24 79be 1d09 32be fd94 8fbd
000000f0: 9c76 923b 2c96 303e a057 74bd fdff 483d
00000100: 5a7f 253e 18b7 0fbd c2e5 f6bd 00dc 3ebd
00000110: aefc 663e d38f 9f3d 5479 00be 6d5f 24be
00000120: b8b8 783d 691b 153e d75a 8e3e 1807 503e
00000130: 3bc1 8f3c 5341 54bd 2c9a cabd 37fb afbd
00000140: 779d a3be b69e 913d 2ca8 0c3e 92d1 903b
00000150: 2110 043e ff69 b33d 01a5 52be 3c47 98bd
00000160: 4e6d b93b 0af9 cabd 3969 6b3c b878 05be
00000170: 2bca da3e 1a66 0e3f 7271 1e3e dee2 243d
00000180: 5c63 d8ba 2d39 933e d614 35be 4ad3 04be
00000190: 3df1 f93d 4f6e d5bd ba8b 33be 746a dabc
000001a0: 8b0e 68be babf d5bd d37b 83be aa8a 843d
000001b0: e21f 69be 2f2d 8e3d 7267 83be 1c61 2f3b
000001c0: cb6d 99be 415e 083e cc9c e63d 26d2 14be
000001d0: 6a74 6fbc cefe 09bc c959 6b3e f40b e83c
000001e0: 2f29 56bd 5f8f dcbd b2bc bebd f74d 1f3d
000001f0: 64de b8be 3000 f5bd 2de2 99bd 8f97 9abc
00000200: 4f9c fcbc f5c1 46be 6e52 65be 7a66 8cbc
00000210: cf4c 2abe 6b4d 23be 8711 0c3d d21d 8abd
00000220: 70aa bdbc d10b 663d 6561 8c3d 2d26 863d
00000230: 7c4b b73d 53c1 273e 2a4b 963e f812 013c
00000240: 82b8 6dbe ed08 46be 3ac0 273e c34d 483e
00000250: 0040 57be 98ba 5bbe c5a8 f8bd f7a5 7cbe
00000260: 5a14 833d b194 883e dc53 c5bd 1496 39be
00000270: 15ed c13d 4313 3cbe 71cf 9e3c 057a 243c
00000280: c8ae 16be e4f0 c03d d813 73bd eae1 38be
00000290: 04dd bc3d 8ec4 47bd f342 9abd 606e 7e3d
000002a0: a6f8 f03c ae9c 193c 5ea7 283e b515 543d
000002b0: 6e2b 9d3e ad99 753e 0136 89be abd0 883d
000002c0: e725 15bd 0243 8bbe a8bb 613e aa7f 0cbe
000002d0: ff0b f43c af2b 05be 214b 30bd 42ea 04bd
000002e0: bc0b a53e fb30 4a3e 2981 77be 525c 3bbe
000002f0: 38d4 acbe 33f1 e93d bd5c 493d c1ea 3d3d
00000300: b408 6dbe c905 26bc 7127 20be bf62 02be
00000310: c301 21be 3f85 52bd 8e6a 913c 66f4 14be
00000320: a95f 243e 9239 453e 7d0b 91be a708 b4be
00000330: db31 053e ad9d 333e 5a9c 1dbe 8d40 423e
00000340: 9f22 ffbc d629 a0bd 418f d2bd 1b7f 71bd
00000350: 768b 533e 1850 bcbd 7e95 be3b 7ab0 21be
00000360: 286b 5cbd e182 9b3c 646a d1bd 8f73 f9bd
00000370: 127a 8abe cb11 353e 0600 a3bd f694 233d
00000380: ff50 c63d 9d7b 313e d7eb 84be c6ee 66bd
00000390: 07bc b93c 404b 2c3d 47b2 b53d 0261 493e
000003a0: 6a1f 70bd 5ce3 203d e4c1 563e e89e 8bbe
000003b0: ce85 bfbd aa77 2cbe 294c 3a3b f1a4 22be
000003c0: e8e8 263d 0cd0 8b3d cee2 cbbe a07b 65bd
000003d0: e9a9 88bd bd78 333d a3ba 43be adea 8cbd
000003e0: 8300 bebd d84f b8bd a076 9fbe 088d ba3d
000003f0: 4d05 8f3e 6c34 5e3e ba82 b8bc 8723 8e3d

cnn_pep_1.conv.bias f4 [32]
-0.04389256 -0.016888298 0.0822875 -0.053032372 0.018694678 0.051451087 -0.021635782 0.027563192
0.052285768 0.024603778 -0.012417105 0.053449012 -0.055202875 -0.01774076 -0.006044189 0.044918865
-0.0075920564 0.023475574 -0.043916985 0.013088468 -0.046333347 0.017601708 0.08325263 -0.0066674356
-0.083888486 0.019144183 0.0056132446 0.015660232 -0.07780323 -0.009339324 0.014689061 0.078328535
00000000: afc8 33bd 5459 8abc 5986 a83d 7938 59bd
00000010: 9525 993c 60be 523d 863d b1bc 34cc e13c
00000020: 9a29 563d dd8d c93c 1d71 4bbc 5aed 5a3d
00000030: 691c 62bd 1255 91bc 550e c6bb d8fc 373d
00000040: c9c6 f8bb d94f c03c 4ce2 33bd 0471 563c
00000050: 09c8 3dbd 7531 903c 5b80 aa3d 817a dabb
00000060: bacd abbd 43d4 9c3c 4fef b73b e349 803c
00000070: 4d57 9fbd f703 19bc 63aa 703c b66a a03d

cnn_pep_1.out_linear.weight f4 [64, 320]
-0.062051073 -0.017748721 -0.13276353 -0.011430358 -0.032395598 -0.077750556 0.021638872 0.0062840106
0.011363875 -0.0800285 0.073647946 0.024675176 -0.12205296 -0.12620467 -0.09585007 -0.07597587
0.08154025 0.08038066 0.09402674 0.049680244 -0.026912866 -0.030172119 -0.088212036 -0.10422998
0.062779315 0.039632313 -0.11586318 0.035248484 0.0961074 -0.02691384 0.07524204 0.048785493
0.03294027 -0.12325941 0.057223838 0.04812166 0.06529401 -0.04135792 -0.06819228 -0.14231724
0.013444629 -0.1312949 -0.14721787 0.0039849672 0.012273283 -0.113140665 -0.11585639 -0.18253317
-0.17810175 0.052974343 0.0016929884 -0.016291087 -0.09315531 -0.025336104 -0.14036246 -0.11371726
0.06952224 0.031976067 0.05072187 0.07238293 0.010452592 -0.17329247 -0.094812244 0.073758006
0.06419683 0.08386682 -0.0031996008 -0.02535633 -0.104876675 -0.07078017 -0.012555603 -0.048783466
-0.06954881 -0.07904896 0.035193916 0.013635434 0.0508262 0.004695939 -0.05203755 -0.18639493
-0.044064745 -0.06801666 -0.070535414 -0.056750447 -0.14146514 -0.14049445 -0.012315998 -0.04135847
-0.08626166 -0.07213437 -0.028057832 -0.03786432 0.15260531 -0.044892672 -0.033713486 0.036102675
0.07733989 -0.01330815 0.015325255 -0.045050796 -0.075924285 -0.04441662 0.07308388 0.073932365
0.10571481 0.110405594 -0.0723864 -0.1469498 -0.0092686685 0.06335882 0.015721245 -0.08277184
0.12178588 -0.025470927 -0.012517048 0.0049815355 0.0065452317 -0.07360026 -0.053236958 0.053796332
-0.09547138 -0.16094707 -0.15420538 -0.13778944 0.1524671 -0.07063797 0.0010008265 -0.0136103695
0.054598983 0.054557607 -0.039620176 0.10102944 -0.024009457 -0.11027088 -0.046083137 0.008176826
-0.09052109 -0.072197534 -0.043857984 0.04112931 -0.12817632 0.025096823 -0.11102866 -0.123658925
-0.043966707 -0.018946089 0.028177094 0.047095478 0.014509181 0.0019682755 -0.020613728 -0.088706024
-0.12435704 -0.07834634 0.075170584 -0.033300374 -0.055217344 -0.099623226 -0.11942921 -0.1119807
0.02562486 0.05302053 0.010796438 -0.15588385 -0.059952617 -0.08163133 -0.0486667 -0.116957314
-0.043390352 0.068515725 -0.06079588 -0.03903231 0.0047658584 -0.08088141 -0.13538988 -0.030774787
-0.024571495 -0.03941993 -0.083584696 0.06642684 -0.041905224 0.020023327 -0.097173095 0.04898429
0.030493047 0.012792693 -0.08495123 -0.100654595 0.06814722 0.09073798 -0.034368314 -0.055077184
0.06810007 0.04191544 -0.017045822 0.057601232 0.02787036 -0.008431676 0.020766733 0.09302549
-0.018088846 -0.108562924 -0.060188778 0.042840414 -0.0544278 -0.012453679 0.0407913 0.010963695
0.089675575 0.03165056 -0.054688282 0.0016154655 -0.09001742 -0.02529019 -0.04089315 -0.022832341
-0.016172504 -0.06010954 0.08720936 0.1290881 -0.10946159 -0.05290391 0.090754926 0.041514624
-0.102096215 -0.03661126 0.047004286 -0.01445855 -0.19278483 -0.20074783 0.025717584 0.03379997
0.0014107802 0.02360715 -0.04708144 0.0059620477 -0.065652154 0.15198277 0.112209 0.033601988
-0.048867434 -0.10563149 -0.03631872 0.060795482 0.047372133 -0.06562585 -0.024607267 0.06958322
-0.012909515 0.038228605 -0.053268768 -0.07488152 0.004645435 0.050942868 -0.03560549 0.032653373
00000000: 4429 7ebd c465 91bc 2af3 07be 6546 3bbc
00000010: 3fb1 04bd af3b 9fbd 0144 b13c 1aea cd3b
00000020: 8c2f 3a3c fbe5 a3bd bcd4 963d 9823 ca3c
00000030: e7f6 f9bd cc3b 01be 0b4d c4bd 3d99 9bbd
00000040: 93fe a63d 9e9e a43d 1791 c03d 837d 4b3d
00000050: 5f78 dcbc 852b f7bc 83a8 b4bd 8776 d5bd
00000060: 7192 803d 7e55 223d ad49 edbd b760 103d
00000070: f5d3 c43d 6a7a dcbc 8018 9a3d 4cd3 473d
00000080: 60ec 063d 6e6f fcbd 8b63 6a3d 381b 453d
00000090: deb8 853d ec66 29bd 65a8 8bbd 9cbb 11be
000000a0: dc46 5c3c 2c72 06be 48c0 16be 5494 823b
000000b0: e115 493c 4bb6 e7bd 1d46 edbd fae9 3abe
000000c0: 4e60 36be a0fb 583d 44e7 dd3a e374 85bc
000000d0: 36c8 bebd a98d cfbc 2dbb 0fbe 98e4 e8bd
000000e0: ad61 8e3d 56f9 023d bcc1 4f3d 803d 943d
000000f0: 5941 2b3c 9573 31be ec2c c2bd 700e 973d
00000100: a179 833d 5ec2 ab3d 65b0 51bb 14b8 cfbc
00000110: 95c9 d6bd 32f5 90bd 04b6 4dbc 2cd1 47bd
00000120: 9b6f 8ebd 6ce4 a1bd 7f27 103d 2867 5f3c
00000130: 222f 503d 64e0 993b 5325 55bd 50de 3ebe
00000140: 3c7d 34bd 524c 8bbd df74 90bd 2873 68bd
00000150: 3ddc 10be c7dd 0fbe 0ac9 49bc 8067 29bd
00000160: f4a9 b0bd 2fbb 93bd 8ad9 e5bc 9e17 1bbd
00000170: 9144 1c3e 61e1 37bd 2717 0abd 66e0 133d
00000180: 6064 9e3d 6d0a 5abc c716 7b3c 2f87 38bd
00000190: 317e 9bbd 34ee 35bd 00ad 953d da69 973d
000001a0: 0281 d83d 541c e23d 523f 94bd 027a 16be
000001b0: 9ddb 17bc 45c2 813d d7c9 803c 4884 a9bd
000001c0: e06a f93d 68a8 d0bc 4e14 4dbc 263c a33b
000001d0: 6279 d63b bcbb 96bd ff0e 5abd 8b59 5c3d
000001e0: 8086 c3bd 4fcf 24be 04e8 1dbe ad18 0dbe
000001f0: 5620 1c3e a4aa 90bd 2a2e 833a 07fe 5ebc
00000200: 2fa3 5f3d cc77 5f3d c448 22bd 86e8 ce3d
00000210: 7baf c4bc b3d5 e1bd acc1 3cbd 18f8 053c
00000220: 1f63 b9bd 4ddc 93bd 6ea4 33bd 3577 283d
00000230: a740 03be da97 cd3c fe62 e3bd e440 fdbd
00000240: 6f16 34bd d434 9bbc a6d3 e63c 30e7 403d
00000250: eab7 6d3c 2ffe 003b 1fde a8bc 81ab b5bd
00000260: e7ae febd 0c74 a0bd 09f3 993d f965 08bd
00000270: 952b 62bd 4307 ccbd 4d97 f4bd 2356 e5bd
00000280: 3aeb d13c 0e2c 593d 8be3 303c 04a0 1fbe
00000290: e090 75bd 542e a7bd bc56 47bd 5187 efbd
000002a0: 15ba 31bd f951 8c3d 1a05 79bd 58e0 1fbd
000002b0: eb2a 9c3b 27a5 a5bd a5a3 0abe 681b fcbc
000002c0: 294a c9bc cb76 21bd 742e abbd cc0a 883d
000002d0: d0a4 2bbd f607 a43c b002 c7bd c0a3 483d
000002e0: 8ecc f93c 7298 513c e9fa adbd ff23 cebd
000002f0: c590 8b3d d6d4 b93d cac5 0cbd 9d98 61bd
00000300: 0d78 8b3d 86af 2b3d aea3 8bbc 45ef 6b3d
00000310: 6250 e43c 0325 0abc ff1e aa3c 2684 be3d
00000320: 0f2f 94bc 3d56 debd 8288 76bd 6e79 2f3d
00000330: afef 5ebd 840a 4cbc c714 273d 12a1 333c
00000340: d4a7 b73d 05a4 013d d200 60bd 07be d33a
00000350: 0e5b b8bd 5f2d cfbc 937f 27bd e40a bbbc
00000360: 337c 84bc 6c35 76bd d29a b23d ac2f 043e
00000370: 662d e0bd c5b1 58bd b8dd b93d 3d0b 2a3d
00000380: d217 d1bd b0f5 15bd 9187 403d 8ee3 6cbc
00000390: 6369 45be d790 4dbe afad d23c d671 0a3d
000003a0: eee9 b83a c863 c13c 78d8 40bd 485d c33b
000003b0: a374 86bd 5fa1 1b3e d5cd e53d 3da2 093d
000003c0: 3829 48bd 5355 d8bd f0c2 14bd af04 793d
000003d0: 4809 423d d866 86bd 2e95 c9bc a681 8e3d
000003e0: 6e82 53bc 9995 1c3d 5a30 5abd 7b5b 99bd
000003f0: bc38 983b 78a9 503d 10d7 11bd 8bbf 053d

cnn_pep_1.out_linear.bias f4 [64]
-0.08858494 -0.122059464 -0.14226963 -0.037681594 -0.062114783 -0.17473532 -0.09553654 0.10306505
-0.08067089 0.09250367 0.10744583 0.0026636687 -0.040969547 0.059057437 -0.13199358 -0.09172743
0.043827914 -0.039785042 -0.10106958 0.11815068 -0.12489589 -0.13799216 0.056655984 -0.18263279
-0.101497464 0.0036546683 -0.18657379 -0.06059017 -0.110244624 -0.15020408 -0.11646226 -0.15688007
0.049923 -0.08778643 0.088918686 -0.1290395 0.044446163 -0.06492512 -0.09088069 -0.14014179
0.043846108 0.13953696 0.045520045 0.16283889 -0.13625914 0.003416932 -0.08585917 0.020800833
-0.07056556 -0.052099306 -0.17552824 0.19416945 0.17790423 -0.15596221 -0.11945062 -0.08253295
-0.13249764 -0.045786377 0.042522226 -0.0004594409 -0.08463599 -0.04453889 -0.028768007 -0.123335265
00000000: 056c b5bd 50fa f9bd 21af 11be 0458 1abd
00000010: 126c 7ebd d1ed 32be a9a8 c3bd c513 d33d
00000020: c836 a5bd 9072 bd3d 8f0c dc3d f290 2e3b
00000030: afcf 27bd 36e6 713d 5329 07be 97db bbbd
00000040: e684 333d a4f5 22bd 91fd cebd fcf8 f13d
00000050: 6bc9 ffbd d14d 0dbe 1b10 683d 1704 3bbe
00000060: e7dd cfbd 2983 6f3b 330d 3fbe 662d 78bd
00000070: efc7 e1bd 19cf 19be c483 eebd 2ba5 20be
00000080: 0f7c 4c3d 5fc9 b3bd 001b b63d ee22 04be
00000090: 2e0d 363d 76f7 84bd a81f babd 5481 0fbe
000000a0: fa97 333d c7e2 0e3e 3a73 3a3d 3dbf 263e
000000b0: 8487 0bbe 9bee 5f3b efd6 afbd 8266 aa3c
000000c0: ad84 90bd 1566 55bd adbd 33be 5bd4 463e
000000d0: 872c 363e 8fb4 1fbe 87a2 f4bd 0907 a9bd
000000e0: 76ad 07be 7f8a 3bbd c92b 2e3d 1de1 f0b9
000000f0: a255 adbd 696e 36bd e2aa ebbc 3397 fcbd

cnn_a1_1.conv.weight f4 [32, 21, 2]
-0.013826308 -0.1646651 0.11755627 0.07116657 -0.24062659 -0.1710457 0.17735012 0.12284035
-0.15515827 0.04640354 0.12671918 -0.0065843267 -0.21885979 -0.16688655 0.0990163 0.11765189
-0.0055460017 -0.19440755 -0.2589274 0.070016444 0.050757974 0.098476276 0.20686816 0.2650182
-0.16792654 -0.11544682 -0.019220266 -0.12041836 -0.37042224 -0.04614646 -0.27828866 -0.061318096
-0.09079195 0.025317986 -0.23583667 -0.13427562 -0.16106059 0.050878674 -0.32663974 -0.11726867
-0.09733057 -0.08808421 0.11577804 -0.12798907 -0.14711203 0.13931945 -0.29980418 0.07690669
-0.1315065 0.09845914 -0.04534917 -0.23716015 0.20824388 -0.12916441 -0.11753744 0.021616248
0.053585384 0.033035144 -0.07005607 -0.18887176 -0.084419556 0.10276271 0.2086041 -0.32306457
0.14440104 -0.17704536 -0.03729388 -0.13434926 0.022788655 0.05814015 -0.31208056 -0.10069723
-0.066633925 -0.01698317 -0.10355563 -0.17196412 -0.06556107 -0.19155312 0.11704789 0.14704779
-0.23478915 -0.27918878 0.09961913 -0.2514791 0.17324392 0.14669769 -0.18872362 -0.06094411
-0.08822064 -0.015778799 0.17379728 -0.010095286 0.11844523 0.1478065 -0.09134476 -0.23688643
0.045328975 -0.032668516 -0.05685008 -0.11493172 0.0630542 0.0563699 0.1382353 0.027355764
0.17334154 0.07958623 0.2238624 0.005332905 -0.10200504 -0.0802702 0.015831558 -0.17336248
0.23213704 0.31017205 -0.14865044 -0.0038145257 -0.040956035 -0.2007373 0.095401496 -0.07051657
0.11561821 0.18169309 0.03702204 -0.024956439 0.018489836 0.17319848 -0.039509248 0.068536356
0.041016348 -0.02204023 0.07872874 0.17212118 -0.09761851 0.24379939 0.118267424 0.029548325
0.0037477403 0.09133354 0.039317578 -0.109191746 -0.1954802 -0.045727644 -0.07490112 -0.093042724
0.021924866 -0.13472597 -0.0054498455 -0.2583909 -0.21527536 -0.16235182 0.0153029775 0.03707437
0.11140438 -0.0637361 0.092773505 -0.24619548 0.15465346 -0.15756035 0.17729132 0.008975798
0.16385674 -0.03115291 -0.07291836 -0.14054152 -0.22491257 -0.20348677 0.15099601 0.14714947
0.060609512 0.15402292 0.025533052 0.02698827 0.26299146 -0.048567537 -0.14003918 0.11976969
-0.09510262 -0.06688053 -0.109445505 0.13970818 -0.12474775 -0.022627579 -0.0009531393 -0.011578424
-0.016175626 -0.08993756 0.11271458 -0.17280863 0.17536455 0.27416173 -0.15810816 -0.05454047
-0.059641145 -0.104256645 0.01460826 0.002622216 0.109464094 -0.06065328 0.034851346 0.09173638
0.049993403 0.038610406 0.012215055 0.12324806 0.12920158 -0.12540536 -0.049454674 -0.17238188
-0.12120388 0.08343356 0.092474766 -0.24645278 0.25194559 0.09582468 0.016459256 -0.21562305
0.21000613 0.023639338 -0.09064987 0.28948823 -0.18019019 -0.027431607 0.004455235 -0.20298666
0.1690665 0.06257078 -0.12785149 0.1498337 0.13701735 0.15596017 -0.09237558 -0.08946979
-0.20508692 0.0326665 -0.03841587 0.17286873 -0.2123766 0.19993816 0.114871845 -0.04872572
-0.06511018 -0.060413413 0.04341012 0.028942404 0.12892269 0.10145999 -0.024909044 0.09735062
-0.022802047 -0.0720443 -0.0738028 0.34100083 -0.1293165 0.18211809 0.042828914 0.118590064
00000000: bd87 62bc f89d 28be 57c1 f03d c7bf 913d
00000010: d166 76be 9b26 2fbe 459b 353e b993 fb3d
00000020: cfe1 1ebe a311 3e3d acc2 013e 56c1 d7bb
00000030: c81c 60be 4fe4 2abe 0fc9 ca3d 79f3 f03d
00000040: 3cbb b5bb c612 47be 2292 84be c864 8f3d
00000050: 98e7 4f3d eead c93d 3fd5 533e 77b0 873e
00000060: eff4 2bbe 626f ecbd d273 9dbc e79d f6bd
00000070: fca7 bdbe 1204 3dbd da7b 8ebe af28 7bbd
00000080: 21f1 b9bd aa67 cf3c 2b7f 71be 8c7f 09be
00000090: 11ed 24be 2866 503d 533d a7be 8e2a f0bd
000000a0: 4055 c7bd 7f65 b4bd 091d ed3d 910f 03be
000000b0: 89a4 16be c2a9 0e3e ef7f 99be 4181 9d3d
000000c0: a4a9 06be f2a4 c93d 0dc0 39bd 1cda 72be
000000d0: e23d 553e ad43 04be 78b7 f0bd 8f14 b13c
000000e0: 597c 5b3d dc4f 073d 8f79 8fbd 9967 41be
000000f0: 29e4 acbd 4175 d23d 509c 553e b868 a5be
00000100: dedd 133e 614b 35be 78c1 18bd da92 09be
00000110: 46af ba3c 5e24 6e3d 06c9 9fbe 593a cebd
00000120: 5e77 88bd 4a20 8bbc f914 d4bd 5d17 30be
00000130: e244 86bd 8026 44be ceb6 ef3d b293 163e
00000140: 916c 70be d5f1 8ebe 1d05 cc3d dec1 80be
00000150: db66 313e eb37 163e c440 41be 88a0 79bd
00000160: 06ad b4bd 8a42 81bc eaf7 313e b366 25bc
00000170: 6a93 f23d 965a 173e f612 bbbd 5b92 72be
00000180: e0aa 393d 6ccf 05bd a1db 68bd 5261 ebbd
00000190: 8f22 813d 20e4 663d 8e8d 0d3e 3219 e03c
000001a0: 7280 313e 1bfe a23d 2f3c 653e a6bf ae3b
000001b0: 05e8 d0bd b464 a4bd 2fb1 813c ef85 31be
000001c0: 55b5 6d3e dfce 9e3e d237 18be 1ffd 79bb
000001d0: 84c1 27bd 148e 4dbe dc61 c33d fe6a 90bd
000001e0: 3dc9 ec3d c10d 3a3e 6ca4 173d 7271 ccbc
000001f0: ff77 973c f15a 313e 73d4 21bd ca5c 8c3d
00000200: c200 283d b68d b4bc 893c a13d 8940 303e
00000210: 37ec c7bd 8ca6 793e 3136 f23d 540f f23c
00000220: a69c 753b 140d bb3d 780b 213d ec9f dfbd
00000230: f62b 48be e94c 3bbd c265 99bd 2f8d bebd
00000240: c79b b33c 9bf5 09be 9e94 b2bb d04b 84be
00000250: 2571 5cbe 8e3f 26be 57b9 7a3c 4bdb 173d
00000260: fb27 e43d 1388 82bd 0900 be3d ab1a 7cbe
00000270: 7a5d 1e3e 8057 21be db8b 353e 3a0f 133c
00000280: 10ca 273e 6334 ffbc 3956 95bd 1eea 0fbe
00000290: 7b4f 66be d65e 50be b39e 1a3e 5aae 163e
000002a0: ae41 783d 2fb8 1d3e b12a d13c 8116 dd3c
000002b0: d1a6 863e c1ee 46bd 6e66 0fbe d049 f53d
000002c0: 2ac5 c2bd a9f8 88bd f724 e0bd a90f 0f3e
000002d0: c07b ffbd 795d b9bc 18dc 79ba 6eb3 3dbc
000002e0: bf82 84bc 2f31 b8bd e7d6 e63d bff4 30be
000002f0: c492 333e ed5e 8c3e 1be7 21be d465 5fbd
00000300: 464a 74bd 8284 d5bd 7c57 6f3c 7cd9 2b3b
00000310: b62e e03d 936f 78bd 49c0 0e3d 48e0 bb3d
00000320: e2c5 4c3d f225 1e3d a721 483c 7b69 fc3d
00000330: 6b4d 043e 436a 00be fc90 4abd e084 30be
00000340: bd39 f8bd 37df aa3d 6963 bd3d 1e5e 7cbe
00000350: 03ff 803e bb3f c43d 90d5 863c 4acc 5cbe
00000360: d90b 573e 49a7 c13c a4a6 b9bd cd37 943e
00000370: c783 38be 40b8 e0bc 38fd 913b bcdb 4fbe
00000380: c51f 2d3e 1c25 803d 80eb 02be 016e 193e
00000390: 474e 0c3e 06b4 1f3e 682f bdbd f03b b7bd
000003a0: 4e02 52be 4fcd 053d f659 1dbd 8004 313e
000003b0: 4079 59be 97bc 4c3e ee41 eb3d 9f94 47bd
000003c0: 7c58 85bd 0e74 77bd cfce 313d 9f18 ed3c
000003d0: 4f04 043e 41ca cf3d 0d0e ccbc c35f c73d
000003e0: 5ccb babc f68b 93bd ec25 97bd a997 ae3e
000003f0: 8b6b 04be 2a7d 3a3e 5f6d 2f3d 59df f23d

cnn_a1_1.conv.bias f4 [32]
0.06840142 -0.034487076 -0.049326893 -0.03587857 -0.044311743 -0.11306664 0.00015085388 -0.0742076
-0.17663983 -0.036637764 -0.010967512 0.0036845952 0.011038495 -0.08209562 -0.013610622 -0.01990952
-0.07693416 -0.030102566 -0.09385774 0.010317684 0.035436165 -0.061176524 0.024265047 0.057606272
-0.09241358 -0.05472763 -0.10364621 0.03769086 0.07863829 -0.09015008 -0.0740838 0.07688189
00000000: 0b16 8c3d 5242 0dbd ff0a 4abd 68f5 12bd
00000010: 3b80 35bd 7c8f e7bd 882e 1e39 27fa 97bd
00000020: 12e1 34be 7b11 16bd 14b1 33bc 4079 713b
00000030: ceda 343c c021 a8bd 16ff 5ebc 4a19 a3bc
00000040: a88f 9dbd a899 f6bc 7d38 c0bd 810b 293c
00000050: 8325 113d 3c94 7abd 7ec7 c63c 8ef4 6b3d
00000060: 5543 bdbd 142a 60bd 7744 d4bd bb61 1a3d
00000070: 1d0d a13d 9ba0 b8bd 3fb9 97bd 4174 9d3d

cnn_a1_1.out_linear.weight f4 [64, 224]
-0.017954225 -0.085492074 -0.07518018 -0.1285807 -0.0020384302 -0.042734113 -0.04973354 0.0763025
-0.06526016 -0.021934854 0.0611486 -0.009499262 -0.08972206 0.029103203 0.018092902 -0.09418801
0.024010694 0.04192225 -0.10468451 -0.08596265 0.016824368 -0.19042633 -0.09476809 0.06352082
0.07498627 -0.09996741 0.014302123 -0.03861392 0.11515708 0.06348966 -0.090123095 -0.101700604
-0.01983628 -0.05463151 -0.020194627 -0.005376074 0.013755308 -0.06053201 0.061535604 0.094943255
0.11009496 0.1241466 -0.07952033 0.014734614 -0.14835148 -0.15312995 -0.06735177 -0.069070436
-0.114522085 -0.067523144 0.122409254 -0.07310607 -0.016620195 -0.1304464 0.015570667 0.0304239
0.0016831139 0.07252157 0.09575765 0.10572043 0.0136262085 -0.04112633 -0.0064301025 0.009238803
0.010784456 -0.04944531 -0.025394479 -0.029979384 -0.034840677 0.04967366 -0.039858095 -0.0060073812
-0.05029781 -0.10258261 -0.041000593 0.06490189 -0.030014427 -0.0691195 -0.119286336 -0.10449258
0.002013391 -0.020705389 -0.028327197 -0.1888576 -0.14195521 -0.082704425 0.09439457 -0.03876767
0.062243294 0.0060873083 0.05697953 -0.021591265 -0.051013272 -0.047583707 -0.04442623 -0.12001367
-0.093215436 0.015302423 0.008626379 -0.12184567 -0.08003441 -0.1741531 -0.08050418 -0.030710546
-0.0758494 0.044209115 -0.011847351 0.06494586 -0.0128955515 0.07417381 0.037832756 -0.1809814
-0.021220988 -0.025631644 -0.010357135 -0.07087905 -0.012624098 0.017171191 0.037337847 -0.07086835
0.010646628 -0.13193844 -0.060345933 -0.06284355 -0.030582143 -0.06474422 0.019300615 0.0035778608
-0.1301234 0.002737114 0.018012848 0.10431317 -0.04885246 -0.08612657 -0.15885814 -0.20098431
-0.10158629 -0.17849521 -0.07195941 -0.045996092 -0.037100654 -0.083533175 -0.06024759 -0.11901477
-0.08858829 0.05339578 -0.05008624 0.030919993 0.01330758 0.15035589 0.12637654 -0.05502427
-0.10412593 0.04686431 -0.07272566 -0.16309208 -0.056552254 0.044451453 -0.02395346 -0.15904452
-0.11185486 -0.06818831 -0.029778013 -0.14264047 -0.031584296 -0.14034262 -0.049136903 0.028915485
-0.05802965 -0.08284288 -0.012018118 -0.09160495 -0.08300893 0.04419386 -0.00963542 0.057739325
-0.04428855 -0.013014774 0.012236422 -0.03331582 -0.0936531 -0.14829949 -0.09388669 0.07524174
-0.18765338 -0.07903596 0.11129513 -0.049464244 0.011364758 -0.14974423 0.037717108 -0.17152862
-0.16251522 0.043221507 0.010353104 -0.13549863 -0.028251747 -0.082245655 -0.1681499 -0.17895892
-0.16936469 -0.04493097 -0.13884345 0.042947963 -0.073082805 -0.011014172 -0.100934975 -0.014172613
0.040170446 0.083638564 0.014176618 0.08516402 0.106093705 0.018811164 -0.08419455 -0.04123517
0.017802058 -0.085304044 -0.08381307 -0.1277931 0.013121052 0.0018878407 -0.0075502596 0.06918643
-0.05429322 -0.06846949 0.1150009 -0.027349245 -0.07152017 -0.40400526 -0.07207554 -0.08142144
-0.20251045 -0.0133603215 -0.07649849 -0.12408294 -0.016211815 0.0771361 0.11595821 -0.15192485
-0.09210911 0.011579475 -0.057254877 -0.019085044 -0.1673986 0.108094625 0.011898334 -0.027496966
-0.22768448 -0.10444528 0.19301842 0.12225707 0.08034396 0.002257215 -0.1203394 -0.17560723
00000000: bd14 93bc 7816 afbd 11f8 99bd a9aa 03be
00000010: 2f97 05bb f709 2fbd 65b5 4bbd 7c44 9c3d
00000020: 1ea7 85bd b9b0 b3bc f476 7a3d cba2 1bbc
00000030: 33c0 b7bd d769 ee3c 9137 943c a5e5 c0bd
00000040: 13b2 c43c aab6 2b3d d564 d6bd 300d b0bd
00000050: 42d3 893c 1fff 42be c615 c2bd 3417 823d
00000060: 6792 993d b7bb ccbd 7453 6a3c a129 1ebd
00000070: 7ad7 eb3d de06 823d 7592 b8bd 6848 d0bd
00000080: b27f a2bc 4ac5 5fbd 346f a5bc c729 b0bb
00000090: f25d 613c 6af0 77bd c20c 7c3d 9c71 c23d
000000a0: 7779 e13d 9340 fe3d 8edb a2bd 7369 713c
000000b0: 73e9 17be 19ce 1cbe baef 89bd cd74 8dbd
000000c0: 8e8a eabd 9349 8abd b4b1 fa3d a3b8 95bd
000000d0: 1327 88bc be93 05be 1c1c 7f3c 8b3b f93c
000000e0: ee9b dc3a 3086 943d 961c c43d f483 d83d
000000f0: 7640 5f3c 1574 28bd 9cb3 d2bb 595e 173c
00000100: 49b1 303c 2a87 4abd 1508 d0bc 5397 f5bc
00000110: 19b5 0ebd 9c76 4b3d 3e42 23bd 91d9 c4bb
00000120: 1405 4ebd d516 d2bd 3df0 27bd 48eb 843d
00000130: d1e0 f5bc 868e 8dbd 654c f4bd 3500 d6bd
00000140: 18f3 033b 599e a9bc 700e e8bc e363 41be
00000150: b55c 11be f060 a9bd f151 c13d d9ca 1ebd
00000160: d3f2 7e3d 0b78 c73b 5e63 693d 2ae0 b0bc
00000170: 4bf3 50bd 22e7 42bd 47f8 35bd bac9 f5bd
00000180: bce7 bebd 04b7 7a3c a855 0d3c 398a f9bd
00000190: 15e9 a3bd 3155 32be 60df a4bd af94 fbbc
000001a0: ee56 9bbd 9e14 353d 641b 42bc 5602 853d
000001b0: dd47 53bc 70e8 973d 85f6 1a3d 3053 39be
000001c0: a3d7 adbc 74f9 d1bc f9b0 29bc 0929 91bd
000001d0: 4ed5 4ebc 99aa 8c3c 92ef 183d 6d23 91bd
000001e0: 326f 2e3c df1a 07be 4c2d 77bd 1fb4 80bd
000001f0: 6787 fabc 9e98 84bd 531c 9e3c 8b7a 6a3b
00000200: 123f 05be 2761 333b ae8f 933c 25a2 d53d
00000210: 8419 48bd 2163 b0bd b5ab 22be d5ce 4dbe
00000220: 790c d0bd 73c7 36be 755f 93bd 6666 3cbd
00000230: dbf6 17bd 7113 abbd 2dc6 76bd 04be f3bd
00000240: c76d b5bd 89b5 5a3d 3b27 4dbd ed4b fd3c
00000250: 0908 5a3c e5f6 193e da68 013e 2161 61bd
00000260: fa3f d5bd caf4 3f3d 31f1 94bd 9c01 27be
00000270: 56a3 67bd ba12 363d 0c3a c4bc 91dc 22be
00000280: 2914 e5bd 50a6 8bbd 05f1 f3bc 5810 12be
00000290: 895e 01bd fab5 0fbe c743 49bd 2be0 ec3c
000002a0: 80b0 6dbd 87a9 a9bd a4e7 44bc 609b bbbd
000002b0: 9600 aabd 9f04 353d e1dd 1dbc 1280 6c3d
000002c0: e967 35bd eb3b 55bc 467b 483c 2b76 08bd
000002d0: 32cd bfbd d2db 17be aa47 c0bd 5718 9a3d
000002e0: 3528 40be 9bdd a1bd b3ee e33d 059b 4abd
000002f0: 4033 3a3c 8d56 19be 417d 1a3d 33a5 2fbe
00000300: 646a 26be 0909 313d 11a0 293c 27c0 0abe
00000310: 3570 e7bc 6970 a8bd 7d2f 2cbe 0241 37be
00000320: f06d 2dbe 8909 38bd fa2c 0ebe 34ea 2f3d
00000330: 70ac 95bd c974 34bc ffb6 cebd 3f34 68bc
00000340: c489 243d b24a ab3d 0c45 683c 796a ae3d
00000350: a847 d93d df19 9a3c 316e acbd 36e6 28bd
00000360: 9fd5 913c e3b3 aebd 30a6 abbd 32dc 02be
00000370: aef9 563c 6c71 f73a 2b68 f7bb 9db1 8d3d
00000380: 9162 5ebd bb39 8cbd 9885 eb3d 860b e0bc
00000390: 2b79 92bd c7d9 cebe 579c 93bd 49c0 a6bd
000003a0: e65e 4fbe 40e5 5abc 3eab 9cbd 321f febd
000003b0: a4ce 84bc 88f9 9d3d 7f7b ed3d 3092 1bbe
000003c0: b3a3 bcbd d7b7 3d3c 1784 6abd 3d58 9cbc
000003d0: 8a6a 2bbe b760 dd3d 3bf1 423c 5141 e1bc
000003e0: 1f26 69be 68e7 d5bd 9fa6 453e ea61 fa3d
000003f0: 608b a43d c9ed 133b 8174 f6bd 62d2 33be

cnn_a1_1.out_linear.bias f4 [64]
-0.15451534 -0.13323608 -0.07067613 -0.029117575 -0.01552649 -0.10311881 -0.20703524 -0.064902365
-0.046064116 -0.029246412 -0.006943735 -0.013873439 -0.07679723 -0.074981384 -0.040552877 -0.0135419825
-0.12339016 0.018745815 0.114915885 -0.009805649 -0.21170685 -0.09500438 -0.055951804 -0.05768136
-0.11216794 0.009558566 0.059173137 -0.062390678 -0.17163895 -0.12945761 -0.12794577 -0.09850421
0.020336507 -0.06891686 0.030707492 -0.12601581 0.06843846 -0.12049479 -0.07323732 -0.15642232
-0.13693078 -0.1658717 0.07043241 -0.041500174 -0.07979082 -0.12443163 -0.17379443 -0.16170728
-0.17557707 -0.009378821 -0.004653996 -0.1409586 -0.08212646 -0.17567857 -0.0952938 -0.14310496
-0.061068274 -0.23537515 -0.030809337 -0.04823793 -0.17526242 -0.021718783 -0.1871633 -0.12027318
00000000: 4539 1ebe 0a6f 08be a6be 90bd fb87 eebc
00000010: d262 7ebc f42f d3bd 0c01 54be 88eb 84bd
00000020: baad 3cbd 2c96 efbc 4588 e3bb 6c4d 63bc
00000030: de47 9dbd d78f 99bd c61a 26bd 31df 5dbc
00000040: fbb3 fcbd d390 993c 0559 eb3d dfa7 20bc
00000050: aec9 58be a891 c2bd b82d 65bd 4a43 6cbd
00000060: 4eb8 e5bd 889b 1c3c 885f 723d 5e8d 7fbd
00000070: 1fc2 2fbe 8990 04be 3704 03be 93bc c9bd
00000080: bf98 a63c 4824 8dbd 478e fb3c 4a0a 01be
00000090: 7729 8c3d f9c5 f6bd 73fd 95bd 2c2d 20be
000000a0: 9537 0cbe 45da 29be de3e 903d 16fc 29bd
000000b0: 5f69 a3bd 03d6 febd 2bf7 31be 9896 25be
000000c0: 7aca 33be a0a9 19bc 8c80 98bb 7457 10be
000000d0: eb31 a8bd 15e5 33be 6529 c3bd 1b8a 12be
000000e0: ba22 7abd 2f06 71be dd63 fcbc 2395 45bd
000000f0: fe77 33be 97eb b1bc bca7 3fbe c951 f6bd

cnn_a2_1.conv.weight f4 [32, 21, 2]
0.11245825 -0.15720838 0.16592096 -0.005902074 -0.24598722 0.0077440217 0.103903875 -0.11933504
0.06339817 -0.0035658346 0.05976904 0.14603254 -0.04873761 -0.025208227 0.023898382 0.095591575
-0.05373364 -0.023752967 -0.15800026 0.043520562 0.24727026 0.27625486 -0.13640594 0.24994
0.115052685 0.22623448 -0.031748854 -0.07380139 -0.009720869 0.27247262 0.09528513 0.038378794
-0.02890641 -0.048802838 0.079425864 0.0077121546 -0.2854076 0.060654894 0.1840867 0.13125178
0.036323015 -0.055409465 0.1698882 0.079829626 -0.21836048 0.11611263 -0.19296467 0.016210152
0.04456998 -0.27791947 0.04457936 0.017502531 0.023382127 0.11913323 -0.025109716 0.088599056
0.060659345 0.043229677 -0.049376108 0.10504613 -0.093485214 0.0020188685 0.1928832 0.15980922
0.0484185 -0.19187707 -0.24144265 0.096625075 -0.15978298 -0.031281892 0.23799796 0.03405799
-0.24656436 -0.11150436 0.05966583 0.124476515 0.06959019 0.18668322 -0.01324354 0.0034556135
-0.27056837 0.113610685 0.006848377 0.13734218 -0.17786197 0.018261136 0.022898963 0.02006267
0.15812333 -0.13768472 0.038094286 0.09307525 -0.002517949 -0.064856365 0.101153 0.008366025
-0.07985003 -0.2422688 -0.097502045 0.012070271 0.3883706 -0.005963506 -0.20238231 0.14811304
0.14213994 0.01856359 -0.027313264 -0.27192268 -0.1778023 0.015548122 -0.034173034 -0.05029482
-0.03868627 0.2354335 0.029578043 0.037356988 0.1532124 0.04560925 -0.21540686 0.1328838
-0.037312068 0.023739109 0.14209178 -0.006637971 -0.11506823 -0.015227377 0.09573368 -0.20912679
-0.041918345 0.011200079 -0.17475785 -0.080995165 -0.05275135 0.07870469 0.12198043 0.21083999
0.08597519 0.0911164 0.0872772 -0.29582492 -0.14668567 -0.02603465 -0.14590466 0.08405563
0.022272673 -0.17915434 -0.026781062 0.048625406 0.10220072 0.07245311 0.121092506 0.3311042
-0.1431591 -0.07671672 -0.17697878 -0.061089564 0.017157817 -0.13542981 0.3404132 0.14266093
0.1666189 0.25310713 0.044199534 -0.016966326 -0.14442183 -0.014781222 -0.04557363 0.114500545
-0.09736142 0.13907221 -0.026262704 -0.105965465 -0.11004605 0.0047751544 -0.033500113 -0.07979098
0.10252133 0.15584312 0.0003173959 -0.0954925 0.14579749 0.20913045 -0.019974349 -0.10825841
0.30259383 -0.11811952 0.1282223 0.15089852 -0.12207867 0.12416515 -0.031198813 0.1085539
-0.30059597 -0.1594273 -0.14581813 -0.14204147 0.3621003 0.14180055 0.018966775 0.13258167
-0.07570611 0.19276623 0.22069345 0.13187578 -0.090151586 0.02317671 -0.027133556 -0.27521282
0.19889514 -0.10958326 -0.19301821 0.06860353 0.065364346 -0.08626126 0.04971857 -0.076511495
0.049324576 -0.07145948 -0.24904132 0.11444178 -0.12992127 -0.030322744 -0.0023528691 -0.09523114
0.020551432 -0.22570924 0.11037827 -0.056131806 -0.017245043 0.12669636 0.033548526 0.20064923
0.22015212 0.23065534 0.37875906 0.29274777 -0.21263433 -0.0037431258 -0.23688382 -0.18963164
0.037746165 0.15111376 -0.051224034 0.09925785 -0.23358127 0.1645062 -0.22292733 0.0030420676
0.106196895 -0.33790407 -0.06340282 0.08905463 0.1885557 0.065742515 -0.14130428 0.04990093
00000000: 8350 e63d 3cfb 20be 2fe7 293e 2f66 c1bb
00000010: 13e4 7bbe 90c1 fd3b 8ecb d43d ee65 f4bd
00000020: e6d6 813d c7b0 69bb 62d0 743d 8e89 153e
00000030: 17a1 47bd 7c81 cebc 8ac6 c33c 84c5 c33d
00000040: ce17 5cbd 9595 c2bc d2ca 21be 9e42 323d
00000050: 6a34 7d3e 4771 8d3e 00ae 0bbe 45f0 7f3e
00000060: bea0 eb3d 03aa 673e 160b 02bd 2f25 97bd
00000070: 4844 1fbc 8881 8b3e da24 c33d 1533 1d3d
00000080: 23cd ecbc 7ce5 47bd 07aa a23d 3eb6 fc3b
00000090: f220 92be 4471 783d 3981 3c3e de66 063e
000000a0: 71c7 143d 09f5 62bd 2cf7 2d3e b77d a33d
000000b0: e499 5fbe 75cc ed3d 8898 45be 27cb 843c
000000c0: 038f 363d 764b 8ebe d998 363d 7861 8f3c
000000d0: e08b bf3c 1ffc f33d e4b2 cdbc 6c73 b53d
000000e0: ef75 783d 9a11 313d 9a3e 4abd 6d22 d73d
000000f0: 2d75 bfbd fe4e 043b 2c83 453e 07a5 233e
00000100: 7a52 463d 6c7b 44be be3c 77be 5ee3 c53d
00000110: 269e 23be 7121 00bd bdb5 733e 6480 0b3d
00000120: 5e7b 7cbe 665c e4bd 2864 743d 8bed fe3d
00000130: 4d85 8e3d e329 3f3e 6ffb 58bc 9377 623b
00000140: f087 8abe b8ac e83d 5a68 e03b 6ea3 0c3e
00000150: 7321 36be 6198 953c 9b96 bb3c 785a a43c
00000160: 15eb 213e 39fd 0cbe c108 1c3d 3d9e be3d
00000170: 2d04 25bb 6ad3 84bd 4e29 cf3d a711 093c
00000180: 6a88 a3bd 5015 78be 27af c7bd 63c2 453c
00000190: 83d8 c63e 8469 c3bb 4f3d 4fbe f2aa 173e
000001a0: 228d 113e ab12 983c 11c0 dfbc 7339 8bbe
000001b0: ce11 36be 8dbd 7e3c 06f9 0bbd f101 4ebd
000001c0: 7f75 1ebd 7b15 713e a74d f23c a403 193d
000001d0: b6e3 1c3e c4d0 3a3d 9e93 5cbe b112 083e
000001e0: 8ad4 18bd 8578 c23c 8280 113e 5683 d9bb
000001f0: e4a8 ebbd 407c 79bc 0510 c43d 5525 56be
00000200: 92b2 2bbd 8980 373c b9f3 32be cbe0 a5bd
00000210: cd11 58bd ed2f a13d e0d0 f93d 70e6 573e
00000220: c313 b03d 3c9b ba3d 63be b23d 5d76 97be
00000230: c534 16be 9e46 d5bc 0868 15be 5c25 ac3d
00000240: 2e75 b63c 3c74 37be f563 dbbc 6f2b 473d
00000250: 9c4e d13d 4c62 943d 59ff f73d 7d86 a93e
00000260: 4d98 12be a81d 9dbd ed39 35be 0d39 7abd
00000270: 8d8e 8c3c 1dae 0abe a44a ae3e b515 123e
00000280: 259e 2a3e 4297 813e 920a 353d f7fc 8abc
00000290: 51e3 13be f02c 72bc 6aab 3abd 437f ea3d
000002a0: 6d65 c7bd f268 0e3e e224 d7bc 6c04 d9bd
000002b0: d35f e1bd e678 9c3b 6a37 09bd 7469 a3bd
000002c0: b4f6 d13d 5795 1f3e 2868 a639 9291 c3bd
000002d0: f04b 153e 4b26 563e 3fa1 a3bc 96b6 ddbd
000002e0: 94ed 9a3e a6e8 f1bd b54c 033e 2485 1a3e
000002f0: 6204 fabd 4c4a fe3d a794 ffbc 8251 de3d
00000300: b7e7 99be e940 23be 5951 15be 5273 11be
00000310: 3665 b93e 2a34 113e 3660 9b3c 7dc3 073e
00000320: ce0b 9bbd 8364 453e 77fd 613e 720a 073e
00000330: 65a1 b8bd 15dd bd3c 3147 debc b2e8 8cbe
00000340: 2bab 4b3e 306d e0bd 91a6 45be 0280 8c3d
00000350: bedd 853d bea9 b0bd b3a5 4b3d 0fb2 9cbd
00000360: 9108 4a3d 5959 92bd b004 7fbe 7460 ea3d
00000370: 150a 05be 6767 f8bc 9832 1abb 8b08 c3bd
00000380: 7a5b a83c 5320 67be 010e e23d 77ea 65bd
00000390: 7a45 8dbc b1bc 013e 2e6a 093d fe76 4d3e
000003a0: 8f6f 613e ea30 6c3e b5ec c13e 09e3 953e
000003b0: d0bc 59be 3b4f 75bb ac91 72be cc2e 42be
000003c0: b99b 1a3d 91bd 1a3e 4bd0 51bd b347 cb3d
000003d0: ee2f 6fbe 5074 283e 1047 64be 6d5d 473b
000003e0: c27d d93d c301 adbe 56d9 81bd 4662 b63d
000003f0: bf14 413e 03a4 863d 12b2 10be eb64 4c3d

cnn_a2_1.conv.bias f4 [32]
-0.12496349 0.026422642 -0.08216531 -0.039942887 -0.033636652 -0.042159993 -0.12147635 -0.061466597
-0.0611457 -0.021155346 -0.10333325 -0.071101606 0.010240116 0.06310311 -0.007223667 -0.08529408
0.022247652 -0.041484673 -0.08077577 -0.08159163 -0.036635768 0.01618257 0.02193367 -0.050691903
-0.07700249 -0.08174707 -0.11967945 -0.050774667 -0.028849334 0.05103974 -0.023899715 -0.046339266
00000000: dcec ffbd 4c74 d83c 4946 a8bd 279b 23bd
00000010: 96c6 09bd f5af 2cbd 98c8 f8bd 66c4 7bbd
00000020: ea73 7abd fa4d adbc 62a0 d3bd b89d 91bd
00000030: 29c6 273c 343c 813d 83b4 ecbb aaae aebd
00000040: b540 b63c d5eb 29bd c46d a5bd 8319 a7bd
00000050: 630f 16bd 4f91 843c 3dae b33c 50a2 4fbd
00000060: 7bb3 9dbd 026b a7bd 801a f5bd 19f9 4fbd
00000070: 7055 ecbc 0c0f 513d 56c9 c3bc 3ece 3dbd

cnn_a2_1.out_linear.weight f4 [64, 256]
0.06722384 -0.05017753 -0.12383849 -0.12749104 -0.05724826 -0.13333237 -0.14446631 -0.06009641
-0.013203887 0.04479989 0.037092905 0.1353599 0.057001624 -0.18954027 -0.11486104 -0.045458972
-0.07272108 -0.06441712 0.080386914 0.030554648 0.11592476 0.16124415 0.06976745 -0.06804928
0.08938419 0.11520458 0.13425311 0.078495115 0.05856685 -0.14613095 -0.06984894 0.18049632
0.038407724 -0.18781866 -0.19393115 -0.048260916 0.039700873 0.07179275 0.16597112 0.06344369
0.016370898 -0.2296307 -0.14844202 -0.21444598 -0.020435246 0.090133764 0.082292646 -0.07431803
-0.09239529 -0.117797256 -0.0004001786 0.12646747 0.052452125 -0.09983058 0.14012566 0.051959697
-0.006500704 0.06050579 0.015499101 -0.14304751 0.032355398 0.10450277 0.20756271 0.11939672
-0.07564787 -0.07844892 -0.0070361923 0.0013591215 0.11831269 -0.24048755 -0.0444717 -0.03454484
-0.08726561 -0.07974713 -0.086584054 -0.027041288 0.11745937 0.017061418 -0.06918578 0.006844487
-0.27247834 0.2352822 0.1212789 -0.06069604 0.16983047 -0.051587798 -0.011513937 -0.009848028
-0.052499153 -0.10720957 -0.17887706 -0.036616363 0.18717784 -0.09348365 -0.14510797 -0.114739046
0.02768368 0.03969675 0.04527304 0.0842081 -0.0188382 -0.14847608 0.025234755 -0.04760774
-0.0799456 0.028984858 0.021584421 0.08601974 0.028098153 -0.066874854 -0.14780457 -0.15735264
0.024466999 0.2206071 -0.01849789 0.0673385 -0.1253272 -0.011075079 0.02356891 -0.040478002
-0.022155814 0.059782404 0.08598206 -0.14018655 -0.14963992 0.029589646 0.14427511 -0.050539542
-0.25268456 -0.20191666 0.045637257 0.027275808 -0.048678488 -0.080875374 0.10206801 -0.08994877
-0.02530281 0.06401344 -0.00067563547 0.056596223 0.083478354 -0.06158022 -0.14409688 0.049964152
0.11122492 0.09672348 0.17254141 0.12732854 0.042185955 -0.058626503 -0.26526695 0.024803739
-0.057101108 0.11217712 0.015464462 0.09712508 -0.13988134 -0.14505656 -0.02107244 0.18553692
-0.053785533 -0.10762225 -0.18116361 -0.169967 -0.12730716 -0.038755026 -0.07358426 -0.030800994
-0.1471977 0.044036347 0.16442691 -0.0793476 -0.22348483 -0.0022023425 -0.043169774 -0.026161257
-0.04939395 -0.04792715 0.11633858 0.1376794 0.047377378 -0.2008523 -0.22620097 -0.17673545
0.02069832 0.10707442 0.21446538 0.123674914 0.021214988 -0.36289153 -0.15691058 -0.16566639
0.056301232 0.024067536 -0.020876043 -0.05845799 -0.062355064 0.04338472 0.15551966 0.10986147
-0.024940617 0.1867368 0.20338352 -0.051584996 -0.011293896 0.07729191 -0.05742317 0.0005305525
-0.23384199 0.008900703 0.11976381 -0.030746013 -0.039131083 -0.016154833 0.08082837 -0.036500886
0.049174443 0.14569424 0.1366485 -0.06478934 -0.1303297 -0.009248708 -0.065631084 -0.13578624
-0.005751924 -0.088015236 -0.05474545 -0.19543837 -0.23964709 0.17239282 0.14355183 0.11855451
-0.12395404 -0.102031685 0.10075223 0.27028278 0.06394627 0.087471776 0.10574629 0.10871225
-0.014625693 0.06987646 -0.10320304 -0.12930594 -0.13768491 -0.15208408 0.019323997 0.15297756
0.11112122 -0.13896742 -0.08570017 0.07351922 0.19364834 0.0116640525 0.015627217 0.029273916
00000000: a7ac 893d f486 4dbd 099f fdbd 038d 02be
00000010: 277d 6abd 4888 08be faee 13be a727 76bd
00000020: 1e55 58bc 1780 373d bbee 173d c99b 0a3e
00000030: 897a 693d d816 42be 443c ebbd 3033 3abd
00000040: caee 94bd 1fed 83bd e5a1 a43d be4d fa3c
00000050: f669 ed3d 301d 253e 3de2 8e3d 6c5d 8bbd
00000060: 0f0f b73d 61f0 eb3d a679 093e 0cc2 a03d
00000070: cbe3 6f3d 5aa3 15be f60c 8fbd 07d4 383e
00000080: 6b51 1d3d 8953 40be e395 46be 3dad 45bd
00000090: 629d 223d 1408 933d 55f4 293e c4ee 813d
000000a0: 431c 863c 4f24 6bbe 2f01 18be ba97 5bbe
000000b0: d167 a7bc 0d98 b83d 0c89 a83d 0d34 98bd
000000c0: be39 bdbd b03f f1bd 10cf d1b9 b080 013e
000000d0: 0ad8 563d fa73 ccbd 1a7d 0f3e b1d3 543d
000000e0: dc03 d5bb ebd4 773d f1ef 7d3c 0c7b 12be
000000f0: 1887 043d 8c05 d63d 528b 543e 4486 f43d
00000100: 45ed 9abd d4a9 a0bd dc8f e6bb 8d24 b23a
00000110: ec4d f23d 5e42 76be f527 36bd e47e 0dbd
00000120: 50b8 b2bd 7752 a3bd fb52 b1bd b185 ddbc
00000130: 8a8e f03d 63c4 8b3c 46b1 8dbd b847 e03b
00000140: 4882 8bbe d1ed 703e 1261 f83d 699c 78bd
00000150: 0ae8 2d3e ba4d 53bd f4a4 3cbc a059 21bc
00000160: 5a09 57bd b190 dbbd 8c2b 37be 0afb 15bd
00000170: 8cab 3f3e 5b74 bfbd 2f97 14be 4efc eabd
00000180: e3c8 e23c 0f99 223d 3970 393d 4c75 ac3d
00000190: 9252 9abc 1d0a 18be 1eb9 ce3c 5500 43bd
000001a0: 85ba a3bd a771 ed3c d0d1 b03c 1e2b b03d
000001b0: 192e e63c aff5 88bd 155a 17be 0d21 21be
000001c0: 046f c83c d4e6 613e e388 97bc c4e8 893d
000001d0: c655 00be 4074 35bc 9613 c13c 43cc 25bd
000001e0: 1c80 b5bc 65de 743d 5d17 b03d 108d 0fbe
000001f0: 353b 19be fc65 f23c dbbc 133e 8d02 4fbd
00000200: df5f 81be 3ec3 4ebe 22ee 3a3d 8471 df3c
00000210: 1863 47bd fda1 a5bd 0809 d13d 1037 b8bd
00000220: d747 cfbc 7a19 833d 211d 31ba 71d1 673d
00000230: b3f6 aa3d 8a3b 7cbd 228e 13be 36a7 4c3d
00000240: e4c9 e33d f616 c63d b2ae 303e 6a62 023e
00000250: 2ecb 2c3d 5822 70bd 12d1 87be 3631 cb3c
00000260: dae2 69bd 1ebd e53d a85e 7d3c 84e9 c63d
00000270: 0e3d 0fbe b589 14be 1ca0 acbc 64fd 3d3e
00000280: 384e 5cbd 0e69 dcbd f482 39be d40b 2ebe
00000290: cf5c 02be 97bd 1ebd 58b3 96bd 5e52 fcbc
000002a0: feba 16be 755f 343d 875f 283e ff80 a2bd
000002b0: 35d9 64be 2d55 10bb cad2 30bd 2250 d6bc
000002c0: 4f51 4abd 424f 44bd ec42 ee3d d4fb 0c3e
000002d0: c80e 423d 3aac 4dbe 3aa1 67be 23fa 34be
000002e0: 868f a93c d549 db3d d09c 5b3e 4649 fd3d
000002f0: 0ecb ad3c ebcc b9be 2bad 20be 73a4 29be
00000300: 1f9c 663d 4829 c53c 3c04 abbc a571 6fbd
00000310: 0668 7fbd 2db4 313d 8c40 1f3e 0dff e03d
00000320: 4450 ccbc ef37 3f3e c543 503e ca4a 53bd
00000330: 080a 39bc 394b 9e3d 8f34 6bbd c714 0b3a
00000340: 4674 6fbe 41d4 113c ba46 f53d 10df fbbc
00000350: ea47 20bd 2457 84bc 5889 a53d f481 15bd
00000360: 246b 493d df30 153e 96ed 0b3e 46b0 84bd
00000370: 2675 05be e587 17bc 9769 86bd 8c0b 0bbe
00000380: a37a bcbb 5541 b4bd c43c 60bd ff20 48be
00000390: 0c66 75be be87 303e 40ff 123e b5cc f23d
000003a0: 9edb fdbd fdf5 d0bd 2f57 ce3d 8162 8a3e
000003b0: 43f6 823d 6724 b33d 8391 d83d 87a4 de3d
000003c0: 9aa0 6fbc 641b 8f3d 1e5c d3bd c768 04be
000003d0: 46fd 0cbe eebb 1bbe 5c4d 9e3c 26a6 1c3e
000003e0: 8693 e33d 7a4d 0ebe 9283 afbd 3f91 963d
000003f0: c04b 463e 951a 3f3c a604 803c dacf ef3c

cnn_a2_1.out_linear.bias f4 [64]
-0.0756202 -0.11987782 0.009941525 -0.07435782 -0.13763638 0.13193722 -0.19395375 -0.028814105
-0.08620418 -0.09775513 -0.1264537 -0.14056997 -0.14693005 -0.026324602 0.025769828 -0.1813531
0.006564833 0.02300888 -0.08463433 0.042937323 -0.09568029 -0.027308045 0.0892587 -0.12751147
-0.10983037 -0.15053138 -0.15213554 -0.066863075 -0.20779714 0.026623249 0.035919294 -0.04496784
-0.14558175 -0.004368885 -0.19336836 -0.05294609 0.003888014 0.010228655 -0.025472797 -0.12851764
-0.122805975 -0.05102492 -0.053748444 -0.11786213 -0.21296789 -0.049703095 -0.009617663 -0.13593675
-0.21030077 -0.09334805 -0.14318916 -0.051058758 -0.06268366 -0.10125942 0.009912719 -0.122758485
-0.07546527 -0.08109753 -0.118786916 -0.016188454 0.08085017 0.07130591 -0.10904836 -0.10628367
00000000: c3de 9abd 8182 f5bd c7e1 223c ea48 98bd
00000010: 8df0 0cbe 8d1a 073e d09b 46be 8f0b ecbc
00000020: d18b b0bd d733 c8bd 147d 01be 93f1 0fbe
00000030: d574 16be b1a6 d7bc 3f1b d33c a1b4 39be
00000040: d01d d73b 1e7d bc3c c354 adbd 0cdf 2f3d
00000050: 07f4 c3bd 1fb5 dfbc 44cd b63d 5e92 02be
00000060: bfee e0bd e624 1abe 6bc9 1bbe 82ef 88bd
00000070: c6c8 54be 0019 da3c 1c20 133d 3330 38bd
00000080: 6213 15be dd28 8fbb 5b02 46be 00de 58bd
00000090: 0dce 7e3b 1796 273c 54ac d0bc 219a 03be
000000a0: b381 fbbd 82ff 50bd 5427 5cbd b361 f1bd
000000b0: 4114 5abe 7995 4bbd 6793 1dbc 0133 0bbe
000000c0: 1659 57be 432d bfbd 2ea0 12be fd22 51bd
000000d0: 4a60 80bd 1961 cfbd f568 223c cd68 fbbd
000000e0: 898d 9abd 7616 a6bd 8e46 f3bd a69d 84bc
000000f0: c694 a53d d508 923d bf54 dfbd 41ab d9bd
